bearing_predictor.pth (torch, 354484 bytes, 89 tensors)

weight f4 [18, 18]
0	0xbdbf4bff	-0.09340667
1	0x3ddec001	0.108764656
2	0x3e3b1340	0.18269062
3	0x3ddf1c69	0.10894091
4	0x3e416d35	0.18889315
5	0x3e3a4134	0.18188936
6	0x3dbbc30c	0.091680616
7	0x3e3a0da2	0.18169263
8	0x3de81226	0.113315865
9	0xbe431688	-0.19051564
10	0xbe4c7eb4	-0.19970208
11	0xbe562234	-0.20911485
12	0xbde31b8d	-0.11089239
13	0xbdfffc08	-0.12499243
14	0xbd464484	-0.048405185
15	0x3d001a43	0.031275045
16	0xbe177bbe	-0.14793298
17	0x3cf2bd93	0.029631412
18	0x3e72da8d	0.23716183
19	0xbd053240	-0.032518625
20	0xbd8a1aa5	-0.06743363
21	0xbb82a155	-0.0039865174
22	0x3dda60bb	0.10662981
23	0x3e2f2380	0.17103386
24	0xbd9c368f	-0.07627594
25	0x3db04102	0.08606149
26	0xbe3e98ab	-0.18612926
27	0xbe1d7be3	-0.1537929
28	0xbd8240ff	-0.06360053
29	0x3e3da84d	0.18521233
30	0x3d29c9c0	0.04145217
31	0xbeeac6e7	-0.45854875
32	0xbe078cd8	-0.13237321
33	0x3e15799f	0.14597176
34	0x3d3a57c3	0.045493852
35	0xbf0bec6d	-0.5465763
36	0x3e0d22bc	0.13782781
37	0x3e44153b	0.19148724
38	0x3d37797d	0.044793595
39	0x3da1b4c6	0.07895808
40	0xbdecf6fc	-0.11570546
41	0xbd656cb1	-0.05601186
42	0xbc045735	-0.008077432
43	0x3e2927e7	0.16519128
44	0x3e8b92af	0.27260348
45	0x3e306f80	0.17230034
46	0x3d65599f	0.055993672
47	0x3e21a667	0.15786134
48	0xbdfd0fe2	-0.12356545
49	0x3eb5da3d	0.35518065
50	0xbd2fb98b	-0.042901557
51	0xbe36d18b	-0.17853372
52	0x3e2cd3af	0.16877626
53	0x3ebd2042	0.36938673
54	0xbd0ea0cb	-0.034821313
55	0xbdfe231a	-0.12409039
56	0x3e217955	0.15768941
57	0x3e72f270	0.23725295
58	0xbddf7501	-0.109109886
59	0x3e6173e7	0.2201687
60	0xbe32c1a8	-0.17456686
61	0x3e1c49e8	0.15262568
62	0xbe14c0fb	-0.14526741
63	0x3e3a1373	0.18171482
64	0x3e38b809	0.18038954
65	0x3c3e599b	0.011618043
66	0x39022bba	0.00012414056
67	0x3db07204	0.08615497
68	0xbe66e510	-0.22548318
69	0x3e12f216	0.14350161
70	0x3d95acdd	0.07308362
71	0x3de6de04	0.11272815
72	0x3e0dcf20	0.13848543
73	0x3dddfaef	0.108388774
74	0x3e587984	0.21140105
75	0x3e02f7cf	0.12789844
76	0xbe4dd87f	-0.20102118
77	0xbdb47ee7	-0.08813267
78	0x3e157bc8	0.14598
79	0x3e2a293e	0.16617295
80	0x3e501830	0.20321727
81	0x3e0d8e9c	0.13823932
82	0x3d79aee7	0.060957815
83	0xbe4b5d0b	-0.19859712
84	0x3d9c9502	0.076456085
85	0x3ec77888	0.38959146
86	0xbdfe8c42	-0.12429096
87	0xbc49e344	-0.012322251
88	0x3d5c5d9a	0.053800203
89	0x3ec89103	0.39173135
90	0x3d86e971	0.06587494
91	0x3ddc2392	0.10748972
92	0xbe2ef241	-0.170846
93	0x3df941d4	0.12170759
94	0x3d96e255	0.07367388
95	0xbd377a59	-0.044794414
96	0xbdacdaab	-0.08440145
97	0x3e0f3924	0.13986641
98	0xbcee50a7	-0.029091192
99	0xbe21b63b	-0.15792172
100	0x3d9fae1b	0.0779688
101	0xbe513559	-0.20430507
102	0x3dbbe061	0.09173656
103	0xbead661c	-0.33866966
104	0x3ca67465	0.020319173
105	0x3d645aa9	0.055750523
106	0x3d5224f7	0.051304784
107	0xbe8f3f15	-0.27977815
108	0x3dd3aab7	0.10335296
109	0xbe6a8e44	-0.22905833
110	0x3e132671	0.14370133
111	0xbdb08c59	-0.08620519
112	0xbd224cfc	-0.0396242
113	0xbe3da6ca	-0.18520656
114	0xbddb1b32	-0.106985465
115	0xbdfc6a2c	-0.12324938
116	0x3c662912	0.014047878
117	0xbca35dc6	-0.019942176
118	0xbe055cd4	-0.13023692
119	0x3d490e92	0.04908616
120	0xbe311b06	-0.17295465
121	0x3f42deff	0.76121515
122	0x3ea339cc	0.31880033
123	0xbdaad3e2	-0.08341195
124	0xbd25fea2	-0.04052604
125	0x3f3409df	0.7032756
126	0x3e1c75ed	0.1527936
127	0x3e4514cb	0.19246213
128	0x3d55dc4f	0.052212056
129	0xbe523e44	-0.20531565
130	0xbd263042	-0.040573366
131	0xbe5a7070	-0.21331954
132	0xbe0a6685	-0.1351567
133	0xbe820017	-0.25390694
134	0xbdd62937	-0.1045708
135	0xbe50a04f	-0.20373653
136	0xbe1062a4	-0.14100128
137	0xbe47073e	-0.19436356
138	0xbdaddb4b	-0.084890924
139	0xbf0f9f28	-0.5610223
140	0x3e6c5cde	0.23082301
141	0xbd47d51d	-0.048787225
142	0xbda9e6a6	-0.08295946
143	0xbf0b33ed	-0.5437611
144	0x3e4360cd	0.19079895
145	0x3e1fecc4	0.15617663
146	0x3cadb5c6	0.02120484
147	0x3e37926b	0.17926948
148	0xbe4489d0	-0.19193196
149	0x3db1c66f	0.08680426
150	0xbe247b67	-0.160627
151	0xbd3a37d5	-0.0454634
152	0x3d196568	0.037450224
153	0xbd55285b	-0.05204044
154	0x3dbfb18f	0.093600385
155	0x3d1240df	0.035706397
156	0xbbf98d86	-0.007615748
157	0xbe7af959	-0.24509181
158	0xbe83d22d	-0.2574629
159	0xbdea5140	-0.114412785
160	0x3cf1933d	0.029489154
161	0xbf02a8dd	-0.51038915
162	0x3de40407	0.11133581
163	0x3e48840f	0.19581626
164	0xbd8134e8	-0.06308919
165	0x3d5f1306	0.0544615
166	0xbe3e8f1e	-0.18609282
167	0xbde647f2	-0.11244191
168	0xbe511900	-0.20419693
169	0x3e109d3e	0.14122483
170	0x3cd28e0e	0.025702503
171	0xbe517d8f	-0.20458053
172	0x3e482345	0.19544704
173	0xbe7aa38e	-0.24476454
174	0xbe83cb5f	-0.25741097
175	0x3e93439f	0.28762528
176	0x3dbafa4d	0.09129772
177	0xbe802736	-0.25029916
178	0xbddded8d	-0.10836325
179	0x3f09b8e0	0.5379772
180	0xbb4ba2b2	-0.0031072316
181	0xbe4f357b	-0.20235245
182	0xbd35c8dc	-0.044381008
183	0x3e51426e	0.20435497
184	0x3e7f9e05	0.24962623
185	0xbdaa151c	-0.083048075
186	0x3c818e6f	0.015814988
187	0x3e7926f6	0.24331269
188	0xbe1d911c	-0.15387386
189	0x3e219296	0.15778574
190	0xbe125af1	-0.14292504
191	0xbd958e96	-0.07302587
192	0xbe039b65	-0.12852247
193	0x3da20d40	0.079126835
194	0x3e2e56ef	0.1702535
195	0x3e1a4a49	0.150674
196	0x3d1c36d4	0.038138226
197	0xbe8b73fe	-0.27236933
198	0x3df98e83	0.12185385
199	0x3e173d9e	0.14769599
200	0xbe69e82d	-0.22842474
201	0xbe0c0613	-0.13674192
202	0x3da546fa	0.08070178
203	0x3e35b019	0.17742957
204	0x3e2c8c58	0.16850412
205	0x3e12562b	0.14290683
206	0x3e3781f5	0.17920668
207	0x3cf262e1	0.029588165
208	0x3e3726b4	0.17885858
209	0x3e1561d7	0.14588104
210	0x3d8f3939	0.06993336
211	0xbea47da7	-0.32127115
212	0xbe16b882	-0.14718822
213	0x3dded7c4	0.10880998
214	0xbda5eca8	-0.08101779
215	0xbe485d7c	-0.19566911
216	0xbd75723f	-0.059923407
217	0x3e0ad928	0.13559401
218	0x3e8dc952	0.27692658
219	0x3e8572d8	0.2606418
220	0x3e050d45	0.12993343
221	0xbd926cc2	-0.0714965
222	0x3d179621	0.03700841
223	0x3dc58de3	0.09646203
224	0xbc7ccf04	-0.015430216
225	0xbde5bdf2	-0.1121787
226	0x3e062e51	0.13103606
227	0xbe2c62f7	-0.16834627
228	0x3e64d1b6	0.22345623
229	0x3db02386	0.086005256
230	0x3e1c6854	0.15274173
231	0x3e826788	0.25469613
232	0x3e017a9d	0.1264443
233	0x3df72dd5	0.12069289
234	0xbdbf1317	-0.09329813
235	0x3e943782	0.289486
236	0xbe035c3a	-0.1282815
237	0x3e927a94	0.28609145
238	0xbb5fccbf	-0.0034149138
239	0xbdcfdcff	-0.101495735
240	0x3e7cf2f9	0.24702062
241	0xbcdb5232	-0.026772592
242	0x3d669bec	0.056301042
243	0x3d499ca2	0.049221642
244	0x3e878b3b	0.26473412
245	0x3e52b7cb	0.20577924
246	0x3d4669e5	0.048440833
247	0xbeac9788	-0.3370936
248	0xbe4ad694	-0.19808418
249	0x3e0895a4	0.13338333
250	0x3e0fcc9f	0.140429
251	0xbf36d541	-0.7141915
252	0x3e562ef7	0.20916353
253	0x3d4dc6a0	0.05023825
254	0x3d668850	0.05628234
255	0xbd27c1bc	-0.040956244

bias f4 [18]
0	0x3e3e89d2	0.18607262
1	0xbe1ffcdb	-0.156238
2	0xbe27be6d	-0.16381235
3	0xbe45b594	-0.19307548
4	0xbe2c6b5e	-0.16837832
5	0xbe391fbc	-0.18078512
6	0xbe088b57	-0.13334404
7	0xbd5a7c35	-0.05334111
8	0xbca17038	-0.01970683
9	0xbdae700b	-0.08517464
10	0xbdcde230	-0.100529075
11	0x3de60506	0.11231427
12	0x3dba6798	0.0910179
13	0x3a6e387c	0.00090873963
14	0x3e0b18fb	0.13583748
15	0x3a9bae35	0.0011877479
16	0xbd7e234a	-0.062045373
17	0x3ccf373f	0.025294898

in_proj_weight f4 [54, 18]
0	0x3e42c42a	0.19020143
1	0x3e6499c4	0.22324282
2	0xbddec6c4	-0.10877755
3	0xbe067a88	-0.1313268
4	0xbe8b3802	-0.27191168
5	0x3df6f884	0.12059119
6	0x3c15aa40	0.009134829
7	0xbe43b53a	-0.19112101
8	0xbe93b1fa	-0.28846723
9	0x3dba46dc	0.090955466
10	0xbdf58410	-0.119880795
11	0xbe8218d5	-0.2540957
12	0xbe52b294	-0.20575935
13	0x3e385554	0.180013
14	0xbc8138c0	-0.01577413
15	0xbe526dfe	-0.20549771
16	0x3e1ec7de	0.15505931
17	0x3e68eb38	0.22745979
18	0xbdef1dfa	-0.116756395
19	0x3db8e68c	0.09028348
20	0x3e62db60	0.22153997
21	0xbe82b1d0	-0.25526285
22	0xbe88be6e	-0.26707786
23	0xbe0c862c	-0.13723058
24	0xbcd8f2a0	-0.02648288
25	0x3dfe6930	0.12422407
26	0x3e3312de	0.17487666
27	0xbd194660	-0.03742063
28	0xbcb4b0f0	-0.022057027
29	0xbcea0d30	-0.028570741
30	0xbd0516e0	-0.03249252
31	0x3d0807e8	0.033210665
32	0xba2cf200	-0.000659734
33	0x3dcb88f0	0.09938228
34	0xbda857ee	-0.08219896
35	0xbd9e2972	-0.07722749
36	0x3e924c78	0.28573966
37	0xbda954b4	-0.08268109
38	0xbd953174	-0.07284823
39	0xbd42d49c	-0.04756604
40	0xbe050a61	-0.1299224
41	0x3d9d5414	0.07682052
42	0x3e24e03c	0.16101164
43	0x3e6a1a1c	0.22861522
44	0x3de410a4	0.111359864
45	0x3d86a8d0	0.06575167
46	0x3dd58db0	0.10427415
47	0xbd736f14	-0.059432104
48	0xbdfe7244	-0.12424138
49	0xbe922403	-0.285431
50	0xbde78342	-0.11304332
51	0x3e301a8c	0.17197627
52	0xbda8df08	-0.08245665
53	0x3c837190	0.016045362
54	0x3de249f8	0.11049265
55	0xbd859dd2	-0.065242425
56	0x3c687920	0.014189035
57	0xbe8f0b5f	-0.27938363
58	0xbd0add60	-0.033902526
59	0x3de5a00c	0.11212167
60	0xbbf7f240	-0.0075667202
61	0x3e6ef2a4	0.23334748
62	0xbd29aa34	-0.041422084
63	0x3e751930	0.2393539
64	0xbe0f8b19	-0.14017905
65	0xbdf83a26	-0.12120466
66	0xbb4bd700	-0.0031103492
67	0xbe6eee15	-0.23333009
68	0x3de090d4	0.10965124
69	0x3e1717fa	0.1475524
70	0xbe16bdd4	-0.14720851
71	0x3e3c215a	0.18372098
72	0x3e29e1fe	0.16590115
73	0xbd7aac30	-0.061199367
74	0x3d302ed8	0.043013424
75	0xbe34b104	-0.17645651
76	0x3d0b4458	0.034000725
77	0x3e83764a	0.25676185
78	0x3e592ee8	0.212093
79	0xbe869353	-0.26284274
80	0xbd4069f0	-0.04697603
81	0x3dac189c	0.08403131
82	0x3e498e84	0.19683272
83	0x3e282274	0.16419393
84	0x3d32b458	0.04362902
85	0x3d530908	0.051522285
86	0x3e86bb84	0.26314938
87	0x3de29e44	0.11065343
88	0x3e7e9394	0.24860984
89	0xbe6ca590	-0.23110032
90	0xbe5a4918	-0.21316946
91	0x3e931e54	0.28734076
92	0x3ded9c00	0.1160202
93	0x3e5be5e4	0.21474415
94	0xbe8ab87a	-0.2709387
95	0x3e3c4c5c	0.18388504
96	0xbdd7fe10	-0.105465055
97	0x3e25cc14	0.16191131
98	0x3e723b18	0.23655355
99	0x3e4e20a4	0.20129639
100	0x3ded9898	0.116013706
101	0xbe4d1d08	-0.20030606
102	0xbdd39286	-0.103306815
103	0xbe55869f	-0.20852135
104	0x3e195496	0.14973673
105	0x3e24edee	0.16106388
106	0x3dc73ca8	0.09728366
107	0xbe1573fb	-0.14595024
108	0xbe4154a6	-0.18879947
109	0xbda659f8	-0.08122629
110	0xb9b3ac00	-0.0003426969
111	0xbdb54552	-0.088511124
112	0x3e85bb9e	0.26119703
113	0x3e1db44e	0.15400812
114	0x3e7fdc84	0.24986464
115	0x3e235bce	0.1595299
116	0x3d232ca8	0.03983751
117	0x3dcbe7f0	0.09956348
118	0xbe8a402e	-0.2700209
119	0x3e35b422	0.17744496
120	0xbe3a7660	-0.18209219
121	0x3e78b1b4	0.24286538
122	0x3df5e118	0.12005824
123	0xbda79812	-0.08183302
124	0x3e16e664	0.14736325
125	0x3e2e0b16	0.16996416
126	0x3e4f60b6	0.20251736
127	0xbe4ff692	-0.20308903
128	0xbe677c16	-0.22605929
129	0xbe333db0	-0.17504
130	0x3e832d00	0.2562027
131	0xbe8c34e2	-0.27384096
132	0x3c9f27f0	0.019428223
133	0xbde3137c	-0.11087701
134	0x3e7f5734	0.24935609
135	0xbe1630f2	-0.14667109
136	0x3d8f6c2c	0.07003054
137	0xbd083238	-0.033251017
138	0x3d64fab0	0.055903137
139	0xbc00b100	-0.0078547
140	0xbdb4136e	-0.087927684
141	0xbdda8eec	-0.106717914
142	0x3e90ab52	0.28255707
143	0xbdaff4cc	-0.08591613
144	0x3e4fad62	0.20280984
145	0x3c9c7bc0	0.019101977
146	0xbe74bc1c	-0.23899883
147	0x3e8615a0	0.26188374
148	0xbe25afd9	-0.16180362
149	0xbdb0a64c	-0.086254686
150	0xbe47a0aa	-0.19494882
151	0x3e887d70	0.266582
152	0xbd651c40	-0.055935144
153	0xbe5cb10d	-0.21551915
154	0xbe90c640	-0.28276253
155	0x3e1d1e96	0.15343699
156	0x3d7ec078	0.06219527
157	0xbe65d0ea	-0.22442976
158	0x3dc01818	0.093795955
159	0x3e0e2cec	0.13884324
160	0xba919e00	-0.001110971
161	0x3d19a4a0	0.037510514
162	0xbdc881cc	-0.09790382
163	0xbdc0338e	-0.09384833
164	0xbe1b6909	-0.15176786
165	0xbc8d8f00	-0.017280102
166	0xbe657205	-0.22406776
167	0x3cd5cd60	0.026098907
168	0x3e840c94	0.25790846
169	0x3ce36150	0.027756363
170	0x3e928980	0.2862053
171	0x3e8eaffe	0.27868646
172	0x3e4a6c54	0.19767886
173	0x3e68e8d8	0.22745073
174	0x3e1143a8	0.14185965
175	0x3df47eb0	0.11938226
176	0xbd4a8b64	-0.04944934
177	0x3e59d418	0.21272314
178	0x3de0625c	0.109562606
179	0xbbb34740	-0.00547114
180	0xbd022b80	-0.031779766
181	0x3e79c548	0.24391663
182	0xbddf1cf4	-0.10894194
183	0x3e8f7a34	0.2802292
184	0x3da62168	0.081118405
185	0xbd99dabe	-0.07512425
186	0xbe1caa60	-0.15299368
187	0xbe8b052c	-0.27152383
188	0xbe44db94	-0.19224387
189	0x3e633f68	0.22192156
190	0xbe542950	-0.20718884
191	0xbd863ede	-0.0655496
192	0x3e55dfcc	0.20886153
193	0x3e8ff172	0.28113896
194	0x3e1d0888	0.15335286
195	0xbdf62e7e	-0.120205864
196	0x3e2e6834	0.17031938
197	0xbdde4b44	-0.108541995
198	0x3e3793d2	0.17927483
199	0x3d3e1650	0.046407998
200	0x3bd51800	0.006503105
201	0xbdfea07c	-0.12432954
202	0xbe6b07eb	-0.22952239
203	0xbe92b18e	-0.28651088
204	0xbe3ba4a2	-0.18324521
205	0x3e896ee8	0.26842427
206	0x3d0ba310	0.034091055
207	0xbd0e8c30	-0.034801662
208	0xbe5b37fd	-0.21408077
209	0xbdef10f4	-0.116731554
210	0xbe35906a	-0.17730871
211	0x3e67dd00	0.22642899
212	0x3e56741e	0.20942733
213	0x3d2c3478	0.042042226
214	0x3e07f44a	0.13276783
215	0xbde8e772	-0.1137227
216	0x3e101dfe	0.14073941
217	0xbe03cb83	-0.12870602
218	0x3e184a58	0.1487211
219	0x3e046228	0.12928069
220	0x3e2f6c60	0.17131186
221	0x3e5c2978	0.21500194
222	0x3e937e42	0.28807265
223	0xbe0a38fa	-0.13498297
224	0xbd07f080	-0.033188343
225	0x3e50222a	0.20325533
226	0xbe5e966e	-0.21737072
227	0x3e8b2672	0.2717777
228	0xbe25c28f	-0.161875
229	0x3d6963b8	0.056979865
230	0xbd363c00	-0.044490814
231	0xbd4c84c0	-0.049931288
232	0x3e4d3070	0.20038009
233	0x3e7f2330	0.24915767
234	0xba455a00	-0.00075283647
235	0x3e8234fe	0.25431055
236	0x3dddda18	0.10832614
237	0x3e29a612	0.16567257
238	0xbcc6edd0	-0.02428332
239	0xbd83aadc	-0.06429073
240	0x3d9d8a24	0.07692364
241	0xbe86159a	-0.26188356
242	0xbcb5b220	-0.022179663
243	0x3e39048e	0.18068144
244	0x3df21914	0.118211895
245	0xbe1d0e0d	-0.15337391
246	0xbe4b7ab9	-0.19871034
247	0xbe096ffd	-0.13421626
248	0xbce9cda0	-0.028540432
249	0xbe142975	-0.1446894
250	0x3e571490	0.21003938
251	0x3de3e000	0.11126709
252	0xbd61783c	-0.055046305
253	0x3e6808a4	0.22659546
254	0xbd1db650	-0.038503945
255	0xbdfbe62a	-0.1229976

in_proj_bias f4 [54]
0	0x00000000	0.0
1	0x00000000	0.0
2	0x00000000	0.0
3	0x00000000	0.0
4	0x00000000	0.0
5	0x00000000	0.0
6	0x00000000	0.0
7	0x00000000	0.0
8	0x00000000	0.0
9	0x00000000	0.0
10	0x00000000	0.0
11	0x00000000	0.0
12	0x00000000	0.0
13	0x00000000	0.0
14	0x00000000	0.0
15	0x00000000	0.0
16	0x00000000	0.0
17	0x00000000	0.0
18	0x00000000	0.0
19	0x00000000	0.0
20	0x00000000	0.0
21	0x00000000	0.0
22	0x00000000	0.0
23	0x00000000	0.0
24	0x00000000	0.0
25	0x00000000	0.0
26	0x00000000	0.0
27	0x00000000	0.0
28	0x00000000	0.0
29	0x00000000	0.0
30	0x00000000	0.0
31	0x00000000	0.0
32	0x00000000	0.0
33	0x00000000	0.0
34	0x00000000	0.0
35	0x00000000	0.0
36	0x00000000	0.0
37	0x00000000	0.0
38	0x00000000	0.0
39	0x00000000	0.0
40	0x00000000	0.0
41	0x00000000	0.0
42	0x00000000	0.0
43	0x00000000	0.0
44	0x00000000	0.0
45	0x00000000	0.0
46	0x00000000	0.0
47	0x00000000	0.0
48	0x00000000	0.0
49	0x00000000	0.0
50	0x00000000	0.0
51	0x00000000	0.0
52	0x00000000	0.0
53	0x00000000	0.0

weight f4 [18, 18]
0	0xbe47fe2f	-0.19530557
1	0xbc5314e0	-0.012883395
2	0x3e412159	0.18860377
3	0xbdf48b09	-0.11940581
4	0xbe38e8dc	-0.18057579
5	0x3df19062	0.11795117
6	0xbda00c2c	-0.078148216
7	0x3e3cd601	0.18441011
8	0xbdb32c2a	-0.08748658
9	0xbb0c8180	-0.0021439493
10	0xbd1f283c	-0.03885673
11	0xbdf7ab1d	-0.12093184
12	0x3e0bec33	0.13664322
13	0xbca78218	-0.020447776
14	0x3d9e3766	0.0772541
15	0xbe020720	-0.1269803
16	0xbdefc721	-0.11707903
17	0x3e2f5761	0.17123176
18	0xbe1f6614	-0.15566283
19	0xbe19c0e2	-0.15014985
20	0x3d8730ea	0.066011265
21	0xbd23bdd8	-0.03997597
22	0x3e2059df	0.15659283
23	0xbe4e7786	-0.20162782
24	0x3e692853	0.22769289
25	0x3e2d8b15	0.16947587
26	0x3d4c689c	0.04990445
27	0x3e15203b	0.14563076
28	0xbe4b3867	-0.19845735
29	0x3ddf6bd6	0.1090924
30	0xbafc4b00	-0.0019248426
31	0x3db80dae	0.08986984
32	0x3ce45988	0.027874723
33	0x3cfacb58	0.03061454
34	0xbe33a6c5	-0.17544086
35	0xbdfb290b	-0.12263688
36	0x3e22702d	0.15863104
37	0xbc9b21c8	-0.018937007
38	0x3e35dfab	0.17761104
39	0xbe2ec6b8	-0.17067993
40	0xbe2a806c	-0.16650552
41	0xbe681d03	-0.22667317
42	0x3e139339	0.1441163
43	0x3e5c5959	0.21518458
44	0x3dd53146	0.10409789
45	0x3dd87772	0.105696574
46	0x3e596b47	0.2123233
47	0xbe5e78ea	-0.21725813
48	0x3d140b9c	0.036143884
49	0x3e5bb7a5	0.21456774
50	0x3e3bad25	0.18327768
51	0xbe24b217	-0.16083561
52	0xbd55c070	-0.052185476
53	0x3d3563ac	0.044284508
54	0x3d59bbd4	0.053157642
55	0xbe2763c6	-0.16346654
56	0x3defab3e	0.11702584
57	0xbe08af78	-0.13348186
58	0xbe1d5707	-0.1536523
59	0x3cfbaef8	0.03072308
60	0xbc9b5560	-0.018961608
61	0x3cb54008	0.022125259
62	0x3d5e7a5c	0.05431591
63	0x3e2ee6d3	0.1708024
64	0xba4b2500	-0.0007749349
65	0xbe08dc82	-0.13365367
66	0xbe61d092	-0.2205222
67	0xbe17612c	-0.14783162
68	0xbe3fe52b	-0.18739764
69	0x3c917bd8	0.017759249
70	0x3d9149a6	0.070941254
71	0xbe57c566	-0.21071395
72	0x3d1914cc	0.03737335
73	0x3d3d7f3c	0.04626392
74	0x3ddabe32	0.10680808
75	0x3e38fdd1	0.18065573
76	0x3e5607cb	0.2090141
77	0xbe0580fa	-0.13037482
78	0xbe3d8ead	-0.18511458
79	0x3cab4df8	0.020911202
80	0xbe0b1aee	-0.13584492
81	0x3dab34a2	0.08359648
82	0xbd94f842	-0.07273914
83	0x3e2ec479	0.17067136
84	0x3daba242	0.083805576
85	0xbdd7eb74	-0.10542956
86	0x3d34a7c4	0.044105306
87	0xbd9c5768	-0.07633859
88	0x3c248860	0.01004228
89	0xbc4bdf10	-0.012443319
90	0x3d777e54	0.06042321
91	0xbe2e9f28	-0.17052901
92	0x3e5fe1ad	0.21863432
93	0x3cc778a8	0.024349526
94	0xbe514364	-0.20435864
95	0x3dd37072	0.103241816
96	0xbc9ca3e8	-0.019121125
97	0xbe44fdc0	-0.19237423
98	0x3ccd44f8	0.0250573
99	0xbc8d4f20	-0.017249644
100	0xbe050480	-0.12989998
101	0x3d381fc4	0.04495217
102	0x3e00fef5	0.12597258
103	0xbe02b254	-0.1276334
104	0xbe5b84ae	-0.21437332
105	0xbda1c568	-0.078989804
106	0x3dedbbfa	0.11608119
107	0x3d2fcb4c	0.04291849
108	0x3e1a04ef	0.15040945
109	0x3e530f73	0.20611362
110	0xbe445174	-0.19171697
111	0x3e28bdff	0.16478728
112	0xbe330a89	-0.17484488
113	0x3de735ea	0.1128958
114	0xbe485f6b	-0.19567649
115	0xbd503f04	-0.050841346
116	0xbe629628	-0.22127593
117	0x3dc77b26	0.097402856
118	0xbcb6cae8	-0.02231355
119	0x3e5500dd	0.2080111
120	0xbe6e3a75	-0.23264487
121	0x3d060134	0.03271599
122	0x3d73c5e4	0.059514895
123	0xbe420a40	-0.18949223
124	0x3d551aac	0.05202739
125	0x3d94be02	0.072628036
126	0xbd207e34	-0.039182857
127	0x3e408f49	0.18804659
128	0x3e2c8507	0.16847621
129	0x3d6a192c	0.057152912
130	0xbe4916ca	-0.196376
131	0xbdb7a1e4	-0.08966425
132	0x3e3b010d	0.1826212
133	0xbc0b28a0	-0.0084935725
134	0x3d54274c	0.05179529
135	0xbe2db879	-0.16964902
136	0x3e1d919d	0.15387578
137	0x3e6821d9	0.22669162
138	0xbe5971b7	-0.21234785
139	0xbdf8b85c	-0.12144539
140	0x3db278b2	0.08714427
141	0x3df10aba	0.11769624
142	0x3c01c5e0	0.007920712
143	0x3d933a36	0.07188837
144	0x3d236fa4	0.03990139
145	0xbe6c79d4	-0.23093349
146	0xbe3dcbc4	-0.18534762
147	0xbdcb3174	-0.09921542
148	0x3e65450b	0.22389619
149	0xbd890170	-0.06689727
150	0xbe0ae6cc	-0.13564605
151	0x3e6ef0e3	0.23334078
152	0xbe0a40b1	-0.1350124
153	0x3dcffc4e	0.10155545
154	0x3dbe68fe	0.092973694
155	0x3e56c375	0.20972998
156	0xbe5a00cf	-0.21289371
157	0xbe42a9c0	-0.19010067
158	0x3e2b4c7d	0.16728397
159	0x3da0e566	0.07856254
160	0x3db25f2e	0.0870956
161	0x3daf165e	0.08549188
162	0x3e01e4cf	0.1268494
163	0x3e06c64d	0.13161583
164	0x3cf61348	0.03003849
165	0x3d8bba96	0.06822698
166	0xbe518649	-0.20461382
167	0x3d7cfc04	0.06176378
168	0xbe0164cf	-0.12636112
169	0x3c0faf90	0.008769885
170	0x3d1e9ce4	0.03872384
171	0xbe417192	-0.1889098
172	0x3e472e03	0.19451146
173	0x3dcb9352	0.099402085
174	0x3c02ea10	0.007990375
175	0xbdffa1a1	-0.12482
176	0x3de32376	0.11090748
177	0xbe4eb76a	-0.20187154
178	0x3db5e9a2	0.088824525
179	0x3da9c3ce	0.082893
180	0xbd78f0b4	-0.060776427
181	0x3d97d6f6	0.074140474
182	0xbe67e6f4	-0.22646695
183	0x3df8d972	0.121508494
184	0xbd0b345c	-0.03398548
185	0x3c68df60	0.014213413
186	0x3cac2fd8	0.021018907
187	0xbddfa656	-0.10920398
188	0x3db84b5a	0.08998747
189	0xbd66b698	-0.05632648
190	0x3da9cc76	0.08290951
191	0xbe42d7a1	-0.19027568
192	0x3d56d2c4	0.052447096
193	0x3e63ef95	0.22259362
194	0x3b37ec00	0.002806425
195	0x3c2ead50	0.010661438
196	0x3e070519	0.13185538
197	0x3e3cf44f	0.18452571
198	0x3e67a01f	0.22619675
199	0xbe70df96	-0.23522791
200	0x3e686c63	0.22697596
201	0x3da2f4d2	0.07956852
202	0xbe2bf91e	-0.1679425
203	0x3e1684f5	0.14699157
204	0xbc78d850	-0.015188292
205	0xbda4ba5c	-0.08043358
206	0xbe3e2cee	-0.18571827
207	0x3e2d1363	0.16901927
208	0x3c295570	0.010335311
209	0x3e4f1975	0.20224555
210	0x3dfbd626	0.12296705
211	0x3e4dd54f	0.20100902
212	0x3d21092c	0.039315388
213	0xbe012a4e	-0.12613794
214	0x3e6798db	0.22616903
215	0xbe24902c	-0.16070622
216	0x3d7de1f4	0.061983064
217	0xbd8c735e	-0.06857942
218	0xbdaf6594	-0.08564296
219	0xbe13b02b	-0.14422671
220	0x3be2a840	0.0069170296
221	0x3e38f4d3	0.18062143
222	0xbdebb371	-0.11508835
223	0x3e564509	0.20924772
224	0xbe073550	-0.13203931
225	0x3dfc919a	0.12332459
226	0x3e6e5019	0.23272742
227	0xbd6a0a64	-0.057138816
228	0xbe1986ce	-0.1499283
229	0x3dca2722	0.09870745
230	0x3e1c42e7	0.15259896
231	0xbd50a050	-0.050934136
232	0xbe49c6b6	-0.19704708
233	0xbd333400	-0.043750763
234	0x3d191b84	0.037379757
235	0xbcb01110	-0.021492511
236	0x3ddb24be	0.107003674
237	0x3be33540	0.006933838
238	0x3d7069fc	0.058694825
239	0x3d83dcae	0.06438576
240	0x3e2ab541	0.16670705
241	0xbd664678	-0.056219548
242	0x3b9e8340	0.0048374236
243	0x3e2d2d37	0.1691178
244	0xbe006963	-0.12540202
245	0xbe5da8f0	-0.21646476
246	0xbda7f28a	-0.082005575
247	0x3db72caa	0.08944066
248	0xbd7f3e20	-0.062315106
249	0x3d7f299c	0.06229554
250	0x3dbef4de	0.093240485
251	0x3e2fe99f	0.17178963
252	0xbcc8ae10	-0.024497062
253	0x3de8454e	0.11341344
254	0x3d3802b4	0.044924453
255	0xbd1a2c14	-0.037639692

bias f4 [18]
0	0x00000000	0.0
1	0x00000000	0.0
2	0x00000000	0.0
3	0x00000000	0.0
4	0x00000000	0.0
5	0x00000000	0.0
6	0x00000000	0.0
7	0x00000000	0.0
8	0x00000000	0.0
9	0x00000000	0.0
10	0x00000000	0.0
11	0x00000000	0.0
12	0x00000000	0.0
13	0x00000000	0.0
14	0x00000000	0.0
15	0x00000000	0.0
16	0x00000000	0.0
17	0x00000000	0.0

weight f4 [256, 18]
0	0x3dba7572	0.09104432
1	0x3db41576	0.08793156
2	0xbdca3798	-0.09873885
3	0x3e3e117b	0.18561356
4	0x3d5314b4	0.051533416
5	0x3c1d1120	0.009586602
6	0x3e153cc5	0.14573963
7	0x3d90ec6e	0.070763454
8	0x3dc65ae6	0.09685306
9	0x3d16e784	0.036841884
10	0x3e6da93b	0.23209088
11	0xbe3cd53d	-0.18440719
12	0x3d87b246	0.066258
13	0xbd2647bc	-0.040595755
14	0x3c8bcd98	0.017065808
15	0xbda9321c	-0.08261511
16	0x3e34655f	0.17616795
17	0xbe446d02	-0.19182208
18	0x3e2ecbe3	0.17069964
19	0x3dc7cd62	0.097559705
20	0xbe4d7852	-0.2006543
21	0xbcd7cf08	-0.026343837
22	0xbe638a6f	-0.22220777
23	0x3e4d9d5f	0.20079564
24	0xbe2bb3c6	-0.16767797
25	0xbe21868a	-0.15773979
26	0x3e4e2d77	0.20134531
27	0x3e1113cb	0.14167707
28	0x3d8c0c4a	0.068382815
29	0xbe5c1f74	-0.21496373
30	0xbe36724e	-0.17817041
31	0xbd39b9c4	-0.045343176
32	0xbb6edc40	-0.0036447197
33	0xbb7a1f40	-0.00381656
34	0x3e55d9f5	0.20883925
35	0xbe3f24a8	-0.18666327
36	0x3dc01532	0.09379043
37	0xbe6bce20	-0.23027849
38	0x3d1f503c	0.038894877
39	0xbe1dc351	-0.15406539
40	0xbe1a5ee8	-0.15075266
41	0x3e51637f	0.20448111
42	0xbe133ce8	-0.14378703
43	0x3d416224	0.047212735
44	0x3c82b9c8	0.015957728
45	0xbe3408d4	-0.17581493
46	0x3e12dc9d	0.1434197
47	0xbe3197d4	-0.17343074
48	0x3d40653c	0.046971545
49	0x3e0a9e83	0.1353703
50	0x3dd6bff6	0.104858324
51	0x3e68b94f	0.2272694
52	0x3dbe9f7e	0.093077645
53	0x3d360cdc	0.044445857
54	0xbc6788c0	-0.014131725
55	0xbd992a48	-0.07478768
56	0x3e1c23bb	0.15248005
57	0x3c7089d0	0.014681295
58	0x3def3c76	0.11681454
59	0xbe20062a	-0.15627351
60	0x3d023c54	0.031795815
61	0x3e591135	0.2119797
62	0xbe424fd6	-0.18975767
63	0x3d94e6ca	0.07270582
64	0xbd6780d4	-0.056519344
65	0xbe2bbe2d	-0.16771765
66	0xbd0b03b8	-0.033939093
67	0xbdf617f2	-0.12016286
68	0x3e6aec91	0.22941805
69	0x3e6beb3d	0.23038955
70	0xbd7027b8	-0.05863163
71	0x3e54e2d7	0.20789658
72	0x3df1f0e6	0.11813526
73	0x3d54ed64	0.051984206
74	0xbe33e49f	-0.17567681
75	0xbccbcc38	-0.024877653
76	0x3dcd7ce2	0.10033585
77	0xbe0b4038	-0.13598716
78	0xbd256778	-0.04038188
79	0x3e03c90d	0.12869664
80	0x3e2a36c1	0.1662245
81	0xbd8f0610	-0.06983578
82	0xbdc6d15a	-0.097078994
83	0xbda04d50	-0.07827246
84	0x3e475ce5	0.1946903
85	0x3e49686d	0.19668742
86	0xbe219a3a	-0.15781489
87	0xbe174eb8	-0.14776123
88	0x3d9e9972	0.07744111
89	0x3e35f003	0.17767338
90	0x3e5930a3	0.2120996
91	0x3e658e53	0.22417574
92	0xbdc8db8a	-0.09807499
93	0x3e169dff	0.14708708
94	0xbe5a1f8d	-0.21301098
95	0x3cc577a8	0.024104908
96	0xbe4f2347	-0.20228301
97	0x3da3dbe2	0.08000924
98	0x3e16c3a7	0.14723073
99	0x3d20db34	0.03927155
100	0xbe25e4a4	-0.162005
101	0xbdea24a6	-0.114327714
102	0x3d76204c	0.060089394
103	0xbcf367c8	-0.029712573
104	0xbdbccb4e	-0.09218465
105	0x3d83bfa2	0.064330354
106	0x3e31b8ad	0.17355604
107	0x3df2a55e	0.118479475
108	0xbe0ee66a	-0.13955083
109	0xbd1a46a0	-0.03766501
110	0x3c8e10d8	0.017342016
111	0xbd5db250	-0.05412513
112	0x3e519f09	0.20470823
113	0xbe62b9c9	-0.22141184
114	0xbd8fdeac	-0.07024893
115	0xbdd0649e	-0.10175441
116	0xbd8f2296	-0.069890186
117	0xbe2a456e	-0.16628048
118	0x3deb2466	0.11481552
119	0x3e12dccf	0.14342044
120	0x3d9a782a	0.07542451
121	0x3e6aaf4d	0.22918434
122	0x3d91a996	0.07112424
123	0x3dbf0792	0.09327616
124	0xbe460484	-0.1933766
125	0x3e0fbf1f	0.1403775
126	0x3d884526	0.06653814
127	0xbe10c2fb	-0.14136879
128	0xbd69ec58	-0.05711016
129	0x3e676621	0.22597553
130	0x3e6110b3	0.21979026
131	0xbe645e30	-0.22301555
132	0xbe4804da	-0.195331
133	0xbe0a429b	-0.1350197
134	0xbe0a70ca	-0.13519588
135	0xbe4c5521	-0.19954349
136	0xbe6a09c3	-0.22855286
137	0xbe5e175d	-0.216886
138	0x3def08da	0.1167161
139	0xbe296d3d	-0.16545577
140	0xbe6782a0	-0.22608423
141	0xbd3091d4	-0.043107823
142	0xbd353dc0	-0.044248343
143	0xbdba600c	-0.09100351
144	0xbdd88626	-0.10572462
145	0x3e2666df	0.1625018
146	0xbc0f4960	-0.008745521
147	0xbe6102b2	-0.21973684
148	0x3dd7f63a	0.10545011
149	0x3e71158d	0.23543377
150	0xbe01513e	-0.12628648
151	0xbe251678	-0.16121852
152	0x3cc8b7e8	0.024501756
153	0x3e4ffeff	0.20312117
154	0x3dd2a562	0.102854505
155	0xbe3edbe8	-0.18638575
156	0xbc3b4340	-0.011429608
157	0xbe469ac1	-0.19394971
158	0x3e200a1d	0.15628858
159	0xbc87df20	-0.016585886
160	0xbe2a753f	-0.16646288
161	0xbd8653d4	-0.06558958
162	0x3e6f3a13	0.23361997
163	0xbd143138	-0.03617975
164	0xbde5cd6a	-0.1122082
165	0x3db6d7f6	0.0892791
166	0x3e14aced	0.14519091
167	0x3d0c6704	0.03427793
168	0x3dacbc7e	0.084343895
169	0x3e3b20b3	0.18274193
170	0xbcf66b78	-0.030080542
171	0xbe0ad310	-0.13557076
172	0x3e3c4687	0.18386279
173	0x3d9b222e	0.07574879
174	0x3db301d6	0.087405846
175	0xbc91a570	-0.017779082
176	0xbd3b3fd4	-0.045715168
177	0xbe0189d2	-0.1265023
178	0xbd01bafc	-0.031672463
179	0xbd279860	-0.0409168
180	0xbe61b5fb	-0.22042076
181	0x3c038630	0.008027598
182	0xbe3222ea	-0.17396131
183	0x3e0a03d7	0.13478027
184	0x3e60fc19	0.21971168
185	0xbe57258d	-0.21010418
186	0x3e6891cf	0.22711872
187	0x3dc16176	0.09442417
188	0x3e6e4e2d	0.23272009
189	0xbd08113c	-0.03321956
190	0x3dd4160a	0.10355766
191	0x3e2d24df	0.16908596
192	0x3cb2c478	0.0218222
193	0xbd713984	-0.05889274
194	0xbe2b8d63	-0.16753154
195	0xbd899618	-0.06718081
196	0x3e02b235	0.12763293
197	0x3d695554	0.05696614
198	0x3d861c36	0.065483496
199	0xbd19e6b0	-0.037573516
200	0x3dba51d6	0.0909764
201	0x3e5d244d	0.21595879
202	0xbb968d60	-0.00459449
203	0x3df45ae6	0.119314
204	0x3c296460	0.010338873
205	0x3e3ab85f	0.18234394
206	0x3c9ecaa8	0.019383743
207	0x3ddf266a	0.10895999
208	0xbd0cfad0	-0.03441888
209	0xbc28ad00	-0.010295153
210	0x3e543265	0.20722349
211	0xbd47c358	-0.04877028
212	0x3c174990	0.009233847
213	0x3dd15d82	0.10222913
214	0xbe178d22	-0.14799932
215	0x3df1eda2	0.11812903
216	0xbe154349	-0.14576449
217	0x3e5edf4f	0.21764873
218	0xbe482e98	-0.19549024
219	0x3cdfafa8	0.02730544
220	0xbda3a76a	-0.07990916
221	0xbe22749c	-0.15864795
222	0xbe228a60	-0.15873098
223	0x3d894f82	0.06704618
224	0xbe710134	-0.23535615
225	0x3d02338c	0.03178744
226	0x3df322d2	0.11871876
227	0x3e529b2b	0.20567004
228	0x3e57fdd9	0.21092929
229	0xbe6715d6	-0.22566923
230	0x3dcd2a66	0.100178525
231	0x3e0581db	0.13037817
232	0x3e5916c7	0.21200095
233	0x3e6d6c4b	0.23185842
234	0x3dacfbb6	0.084464476
235	0x3d96a9a2	0.07356574
236	0x3e3bf69d	0.18355794
237	0xbddc5054	-0.10757509
238	0xbdf26da5	-0.11837319
239	0x3e289483	0.16462903
240	0x3e166e5f	0.1469054
241	0xbe18d496	-0.14924845
242	0xbcef3f98	-0.029205129
243	0x3c9b68d8	0.018970892
244	0xbe1c5ee0	-0.15270567
245	0xbe0bf9d6	-0.13669524
246	0xbe22afb4	-0.15887338
247	0x3d116b2c	0.035502598
248	0xbe60ad02	-0.21940997
249	0xbd1881d8	-0.037233204
250	0x3e617b1d	0.2201962
251	0xbe312ce6	-0.17302284
252	0x3c70b7d0	0.014692262
253	0x3e4f61a5	0.20252092
254	0x3e48eaeb	0.19620864
255	0xbdef3cdc	-0.1168153

bias f4 [256]
0	0x3e33cc29	0.1755835
1	0x3d37323c	0.04472564
2	0x3dd20cae	0.10256325
3	0x3e0af3f1	0.13569619
4	0x3d118454	0.03552659
5	0xbe2e9f52	-0.17052963
6	0xbe036395	-0.12830956
7	0xbdeb35f1	-0.11484898
8	0x3d1a975c	0.037742004
9	0xbe615746	-0.22005948
10	0xbdc3f0a4	-0.09567383
11	0x3d1bace4	0.03800668
12	0x3b985160	0.0046483725
13	0x3e29f39d	0.16596837
14	0x3e56f621	0.20992328
15	0x3b8611c0	0.0040914714
16	0x3dd33442	0.10312702
17	0x3d56840c	0.052372023
18	0x3e207159	0.15668239
19	0x3e678f51	0.22613265
20	0xbcc17048	-0.02361311
21	0x3d5f53fc	0.054523453
22	0xbcabc938	-0.020969972
23	0xbdab596a	-0.08366664
24	0x3d911b46	0.0708528
25	0x3d5b2ed4	0.053511456
26	0xbe186478	-0.14882076
27	0xbde9966a	-0.11405642
28	0x3e19a69f	0.15004967
29	0x3d13c7fc	0.03607939
30	0x3dca90da	0.098909095
31	0x3d2a806c	0.04162638
32	0xbe5befb9	-0.21478166
33	0xbd4ca638	-0.049963206
34	0x3db3cbee	0.08779131
35	0xbc6ae220	-0.014336139
36	0xbe5e7198	-0.2172302
37	0xbccb8fc8	-0.024848834
38	0x3c5b70f0	0.013393626
39	0xbdd388dc	-0.10328838
40	0xbce07380	-0.027398825
41	0x3e483ce1	0.19554473
42	0x3cc2aee8	0.023765042
43	0xbe3bb5d0	-0.18331075
44	0xbe49ce2a	-0.19707552
45	0x3b2b1a00	0.0026108027
46	0x3e23f55d	0.16011567
47	0x3e4c4e43	0.1995173
48	0x3e2686c9	0.16262354
49	0xbd51b534	-0.0511982
50	0x3dc95dca	0.09832342
51	0xbcb49888	-0.022045389
52	0x3d10777c	0.0352702
53	0x3e1b7109	0.15179838
54	0xbe55db9e	-0.20884559
55	0x3e1ae97f	0.15128134
56	0xba83f100	-0.001006633
57	0xbe4e5ba0	-0.2015214
58	0xbd25adcc	-0.04044895
59	0x3d869a4e	0.065724
60	0x3dbcd15e	0.09219621
61	0x3d9349b2	0.07191791
62	0x3e6abaeb	0.22922866
63	0xbe351d98	-0.1768707
64	0x3d902066	0.070374295
65	0x3e337577	0.17525278
66	0x3e6ce0e9	0.23132671
67	0xbe05a780	-0.13052177
68	0xbc614a70	-0.013750657
69	0xbcf5a0d0	-0.029983908
70	0xbe274240	-0.16333866
71	0xbd584084	-0.052795902
72	0x3de7b802	0.113143936
73	0xbd9353d0	-0.0719372
74	0x3c2a4c30	0.010394141
75	0xbdac9b22	-0.08428027
76	0xbc23d920	-0.010000497
77	0xbe3ae318	-0.18250692
78	0xbd030a18	-0.031992048
79	0xbe5e378b	-0.21700875
80	0x3e143177	0.14471994
81	0x3d5908f4	0.052987054
82	0xbdf2c8b6	-0.11854689
83	0xbe63b8fa	-0.22238532
84	0xbce25628	-0.027628973
85	0x3e0fb663	0.14034419
86	0x3e5f5493	0.21809606
87	0xbdce5fa6	-0.10076837
88	0xbe0c61a2	-0.13709119
89	0xbde09cc6	-0.10967402
90	0x3d98c1ba	0.074588254
91	0x3e703efb	0.23461525
92	0x3e2ee6d1	0.17080237
93	0x3e55ffad	0.20898314
94	0x3ddb9b92	0.10723032
95	0x3d6f8fa4	0.058486596
96	0x3e6a4b4d	0.22880287
97	0xbe1c3c3a	-0.1525735
98	0xbd055ff4	-0.03256221
99	0x3e0d10af	0.13775896
100	0xbdc12996	-0.0943176
101	0xbd8760a4	-0.066102296
102	0x3cb63bd8	0.022245333
103	0x3e17256b	0.14760368
104	0x3e461dff	0.1934738
105	0xbdaa0e98	-0.08303565
106	0xbdd7c92c	-0.10536417
107	0x3e49af45	0.19695766
108	0x3e680fcf	0.2266228
109	0xbc7dac30	-0.015482947
110	0xbd6cf9d8	-0.057855457
111	0xbde10e84	-0.10989097
112	0xbe46e6f2	-0.19424036
113	0x3d8d26ca	0.06892164
114	0x3ddd22ae	0.1079763
115	0xbd6d9e0c	-0.058012053
116	0x3e1eedd1	0.15520407
117	0x3e597a17	0.2123798
118	0x3e0049cd	0.12528153
119	0x3e2df551	0.16988112
120	0xbe18c35a	-0.1491827
121	0xbe25b08f	-0.16180633
122	0xbe55e87e	-0.2088947
123	0x3de05816	0.10954301
124	0xbdc97d82	-0.09838392
125	0x3e643ae1	0.22288086
126	0x3e470369	0.19434895
127	0xbd188b6c	-0.037242338
128	0x3c052e70	0.008128747
129	0xbe250746	-0.16116056
130	0xbe26b742	-0.16280845
131	0xbc9db6b0	-0.019252151
132	0x3dada5fe	0.08478926
133	0x3cd79148	0.026314393
134	0x3d8290be	0.06375264
135	0x3e1a6edd	0.15081353
136	0xbd2f1aa0	-0.04275
137	0x3dc4f202	0.09616472
138	0xbe151b77	-0.14561258
139	0xbde22844	-0.11042836
140	0xbe29cab7	-0.16581236
141	0xbdf25e74	-0.11834422
142	0x3e65b385	0.22431763
143	0x3e40f6ff	0.18844222
144	0x3e01f4e5	0.12691076
145	0xbc9275d0	-0.017878443
146	0xbd900956	-0.07033031
147	0x3d8410ca	0.06448515
148	0xbe4481da	-0.1919016
149	0xbe082bc1	-0.13297941
150	0xbde4cb1d	-0.11171553
151	0xbda4b6c8	-0.08042675
152	0xbde738f8	-0.11290163
153	0xbe503073	-0.20330982
154	0xbd06f224	-0.032945767
155	0xbe559526	-0.20857677
156	0x3e6b3661	0.22969963
157	0x3dd279ea	0.102771595
158	0x3e180d7d	0.14848895
159	0x3da3d3da	0.07999392
160	0x3d680e44	0.05665423
161	0x3db119c6	0.08647494
162	0x3dc89776	0.09794514
163	0xbdb72cc6	-0.08944087
164	0x3dd3fcd2	0.10350956
165	0xbe08e073	-0.1336687
166	0x3e245b03	0.16050343
167	0x3e6fafe9	0.23406948
168	0xbc083b90	-0.008314982
169	0x3cf6e228	0.030137137
170	0xbe3a3259	-0.18183269
171	0xbd880070	-0.066407084
172	0x3e2c5627	0.1682974
173	0xbc923968	-0.017849639
174	0xbc237ad0	-0.009978011
175	0xbe4aa7c7	-0.19790564
176	0xbe50093c	-0.20316023
177	0x3b74cfc0	0.0037355274
178	0x3e70d7e9	0.23519863
179	0x3dbaa04a	0.09112604
180	0xbe3eeb5c	-0.1864447
181	0x3dfa005a	0.12207098
182	0x3e4f8ce9	0.20268597
183	0xbe4149fe	-0.18875882
184	0xbe53fd55	-0.20702107
185	0x3e0f8e51	0.14019133
186	0x3d03cb94	0.03217657
187	0x3e110a19	0.14164008
188	0xbe0cd536	-0.13753209
189	0x3c77aff0	0.01511763
190	0xbd828e4c	-0.06374797
191	0x3e00dedf	0.12585019
192	0xbbb0b2a0	-0.0053923875
193	0x3dfcd13e	0.12344597
194	0xbe25bd93	-0.16185598
195	0xbd8a0134	-0.06738511
196	0x3e5c1ea3	0.21496062
197	0x3d42438c	0.0474277
198	0xbdf9331d	-0.12167952
199	0x3a8abe80	0.0010585338
200	0x3db59ea6	0.088681504
201	0xbdac780a	-0.08421333
202	0xbe268dc2	-0.16265014
203	0x3c8f7288	0.017510667
204	0xbca99998	-0.020703122
205	0xbd439230	-0.047746837
206	0x3ce7e5d8	0.02830784
207	0x3de82736	0.11335604
208	0x3e646d01	0.22307207
209	0x3c1fb9c0	0.009748876
210	0xbe695f92	-0.22790363
211	0x3e62bd93	0.2214263
212	0x3e2274b7	0.15864836
213	0xbdea3ca9	-0.11437351
214	0xbdd099bc	-0.101855725
215	0xbe02eda6	-0.12785968
216	0x3b7a1140	0.0038157254
217	0xbe68b3e6	-0.22724876
218	0x3d1ca51c	0.038243398
219	0x3d7ceecc	0.061751172
220	0x3e563bbd	0.20921226
221	0x3e68c265	0.22730406
222	0xbe0c76c6	-0.13717183
223	0x3d09805c	0.03356968
224	0x3c8f9598	0.017527387
225	0xbdd4ac28	-0.10384399
226	0xbe10348e	-0.14082548
227	0xbc2c2580	-0.010506988
228	0xbe57dbce	-0.21079943
229	0xbd59735c	-0.05308853
230	0x3dbb859e	0.09156345
231	0xbdb3c356	-0.08777492
232	0xbd179f38	-0.037017077
233	0xbd8dc9a6	-0.06923227
234	0x3d2d1edc	0.042265758
235	0x3e499773	0.1968668
236	0xbd8a3588	-0.067484915
237	0xbc2a4fa0	-0.010394961
238	0xbe6d52e7	-0.23176156
239	0xbdbb37f2	-0.0914153
240	0xbd3618a8	-0.044457108
241	0x3e51bc4b	0.20481984
242	0xbd526f50	-0.051375687
243	0xbe4a5f54	-0.19762927
244	0xbdcd0366	-0.10010414
245	0x3de3feee	0.11132608
246	0xbd3aca18	-0.045602888
247	0xbe1c5b62	-0.15269235
248	0x3e29d063	0.165834
249	0xbdec4a15	-0.115375675
250	0xbe2e69d4	-0.17032558
251	0xbd555674	-0.0520844
252	0xbe0e2c8e	-0.13884184
253	0x3e5fdcab	0.21861522
254	0x3ca64e58	0.02030103
255	0xbe65a231	-0.22425152

weight f4 [18, 256]
0	0x3cc81c44	0.02442754
1	0x3b63d040	0.0034761578
2	0xbce3e32c	-0.027818285
3	0x3a8a7cc0	0.0010565743
4	0xbcd60f10	-0.02613023
5	0xbcc4e2b0	-0.024033874
6	0xbd1b32ae	-0.03789013
7	0xbc279c80	-0.010230184
8	0xbd6803c2	-0.05664421
9	0xbd0b968c	-0.03407912
10	0x3d3ba8d6	0.04581531
11	0xbcdd70c8	-0.027031317
12	0xbc71d6b0	-0.014760658
13	0x3a8ea380	0.0010882467
14	0xba819380	-0.0009885877
15	0x3d23daf4	0.04000373
16	0xbbfa2950	-0.0076343194
17	0xbd5e38d8	-0.05425343
18	0xbc2334e8	-0.009961344
19	0x3c91f310	0.017816097
20	0x3d7e9d00	0.062161446
21	0x3d787692	0.060659952
22	0x3d709f54	0.058745697
23	0x3d4143a6	0.047183655
24	0xbcc42314	-0.023942508
25	0x3a1b3200	0.00059202313
26	0xbd3269e4	-0.043558016
27	0x3ccc44e4	0.024935193
28	0xbd1f4bd2	-0.038890667
29	0xba284880	-0.0006419495
30	0xbd7282fe	-0.059206955
31	0xbc95b374	-0.018274046
32	0xbce21b08	-0.02760078
33	0xbc7fc8c0	-0.015611827
34	0x3cba1ed8	0.022719786
35	0x3cff9454	0.031198658
36	0x3d0a2594	0.033727244
37	0xbd26f866	-0.040764235
38	0x3b5b2d40	0.003344372
39	0xbd6037dc	-0.05474077
40	0x3cb0e8c0	0.021595359
41	0xbcc4cbf8	-0.024023041
42	0x3c8a01f8	0.016846642
43	0x3c4cc2f0	0.012497649
44	0x3d304cca	0.04304198
45	0xbb8a83a0	-0.0042271167
46	0x3d01351a	0.031544782
47	0x3d328b98	0.04359016
48	0x3c3ebc90	0.0116416365
49	0xbbbecdf0	-0.0058228895
50	0xbcdff444	-0.027338155
51	0xbd65d66c	-0.05611269
52	0x3d59a25e	0.05313336
53	0x3d27d448	0.04097393
54	0x3d68abce	0.05680447
55	0xbd78b754	-0.06072171
56	0x3d16934e	0.036761574
57	0xbd419c4a	-0.04726819
58	0xbd149fe8	-0.03628531
59	0xbd298500	-0.041386604
60	0x3c2aa740	0.010415852
61	0xbbf36390	-0.0074276403
62	0x3bd05060	0.0063572377
63	0x3c1016a0	0.008794457
64	0xbbb83a60	-0.005622193
65	0xbd33ab1c	-0.043864354
66	0xbb9f47d0	-0.0048608556
67	0xbca17a10	-0.019711524
68	0x3d249fa8	0.040191323
69	0xbccbebb4	-0.024892665
70	0x37334000	1.0684133e-05
71	0x3b98be20	0.0046613365
72	0x3ce3f8b8	0.02782856
73	0xbcf05f74	-0.02934239
74	0xbd48e1cc	-0.04904346
75	0xbc6525a0	-0.013986021
76	0x3cab72c0	0.02092874
77	0x3ca063a8	0.01957877
78	0xbd3a73d0	-0.045520604
79	0xbb6436a0	-0.0034822598
80	0xbca9c6b4	-0.020724632
81	0x3d6ddf0a	0.058074035
82	0x3cc33134	0.023827173
83	0x3cd75828	0.026287153
84	0xbc7e7888	-0.015531667
85	0x3d7f6e48	0.06236103
86	0xbd06042c	-0.032718822
87	0x3d3f3598	0.04668197
88	0xbd79ad3a	-0.060956217
89	0xbd64f8c2	-0.055901296
90	0x3d104878	0.03522536
91	0x3cd7dadc	0.026349477
92	0x3d246514	0.040135458
93	0x3d588e2a	0.052869953
94	0x3b894230	0.0041887984
95	0x3d6ee71a	0.058325864
96	0x3c9b0238	0.018921956
97	0xbd0a2094	-0.033722475
98	0xbc06c5b0	-0.008225843
99	0xbd19362c	-0.037405178
100	0xbd49c75e	-0.049262397
101	0x3cac1850	0.021007687
102	0xbd531c0c	-0.05154042
103	0xbd3cb73a	-0.046073176
104	0x3d02ce10	0.031934798
105	0x3bc70b50	0.0060743466
106	0xbd77f1b8	-0.060533255
107	0x3d6c52aa	0.057696022
108	0x3ca7c3a4	0.02047903
109	0x3d71b93c	0.059014544
110	0x3d7cd850	0.06172973
111	0x3bcccd20	0.0062500387
112	0x3c079120	0.008274347
113	0xbbc4be60	-0.00600414
114	0x3d5f90ec	0.054581568
115	0x3ccfdba8	0.025373295
116	0xbd3c8cf0	-0.046032846
117	0x3cec3298	0.028832719
118	0x3d097f46	0.033568643
119	0xbd26f7b0	-0.040763557
120	0x3d5b4398	0.05353126
121	0x3cfb3880	0.03066659
122	0x3c55cf20	0.013049871
123	0x3d65a1c4	0.056062475
124	0x3a8a0a00	0.0010531545
125	0xbc9395a8	-0.018015698
126	0x3ce31230	0.027718633
127	0x3d64b46e	0.055836134
128	0xbc7b03c8	-0.015320726
129	0xbc8ac12c	-0.016937815
130	0xbb92c460	-0.004478976
131	0x3d54897a	0.05188892
132	0xbd7411c2	-0.059587248
133	0x3d731882	0.059349544
134	0x3d46e522	0.04855836
135	0x3c793a00	0.015211582
136	0x3d094eda	0.033522464
137	0x3d0b7128	0.03404346
138	0xbd3d845a	-0.0462688
139	0x3d375b96	0.044765078
140	0x3b86fcc0	0.0041194856
141	0xbbcbd4d0	-0.0062204376
142	0xbc1d4198	-0.009598158
143	0x3d605d26	0.054776333
144	0x3cfcbe5c	0.03085249
145	0xbd58978a	-0.052878894
146	0x3d4812f6	0.048846208
147	0x3d11b340	0.035571337
148	0xbc922154	-0.017838158
149	0xbca0ef5c	-0.019645385
150	0xbd1a10de	-0.037613742
151	0xbd3a728c	-0.045519397
152	0x3d469e6c	0.048490927
153	0xbcdf0440	-0.027223706
154	0x3cb2a424	0.021806784
155	0xbceb6e64	-0.028739162
156	0x3bf79300	0.0075553656
157	0x3d24ff7a	0.040282704
158	0x3d290f3e	0.0412743
159	0x3d325d42	0.04354597
160	0x3d50dcc0	0.050991774
161	0xbd345700	-0.044028282
162	0x3d500684	0.050787464
163	0xbcdb0580	-0.026736021
164	0x3d36a8e0	0.044594646
165	0xbc8fc214	-0.017548598
166	0xbcc14178	-0.023590788
167	0xbd5d6a72	-0.054056592
168	0x3c9910d0	0.018684775
169	0xbd1aa4d4	-0.03775485
170	0x3d7cc36e	0.061709814
171	0xbc229488	-0.009923108
172	0xbc719698	-0.014745377
173	0xbd1dbf34	-0.038512424
174	0x3d529a3e	0.051416628
175	0xbd19ef7c	-0.037581906
176	0x3c9bfc34	0.019041158
177	0x3d0d3e6e	0.034483366
178	0xbc61ada8	-0.013774313
179	0xbbbb2a60	-0.0057118386
180	0x3d53c8e4	0.051705256
181	0x3cedf028	0.02904518
182	0x3c4ac088	0.012375005
183	0xbc946290	-0.018113405
184	0xbcdec60c	-0.027194045
185	0x3cb26838	0.021778211
186	0xbd4e18a2	-0.05031646
187	0x3d4b5ebc	0.049650893
188	0xbd00429a	-0.031313516
189	0xbd09a25c	-0.033602104
190	0xbcc897a4	-0.02448637
191	0x3d39f04a	0.045395173
192	0x3d4a1898	0.04933986
193	0x3d7091ac	0.058732674
194	0x3d76a580	0.060216427
195	0xbbf52130	-0.007480763
196	0xbae44dc0	-0.0017418191
197	0x3c5eb388	0.013592608
198	0xbccddf1c	-0.0251308
199	0xbc9bff80	-0.01904273
200	0x3c97e150	0.018540055
201	0x3d03d3c2	0.03218437
202	0x3c1469c0	0.009058416
203	0x3c5694b8	0.013096981
204	0x3cba58e4	0.022747464
205	0x3d68e5de	0.056859843
206	0x3d149bc6	0.03628137
207	0x3bea7d80	0.007156074
208	0xbd4d9924	-0.050194874
209	0x3c7685e0	0.015046567
210	0xbd129d88	-0.035794765
211	0xbcadddc0	-0.021223903
212	0xbcac8d38	-0.021063432
213	0xbcc0ebc8	-0.02354993
214	0x3d581f84	0.05276443
215	0x3d3f3328	0.046679646
216	0x3a4b2e00	0.000775069
217	0x3cc592a4	0.024117775
218	0x3c5f24d8	0.013619624
219	0x3d6b5d5c	0.05746208
220	0xbccdfdec	-0.025145493
221	0x3c59eeb0	0.013301536
222	0xbd7c55f8	-0.061605424
223	0xbd5022da	-0.050814487
224	0xbb9b9700	-0.004748225
225	0xbd63948e	-0.055561595
226	0x3d286a72	0.04111714
227	0xbcdbccf4	-0.026831128
228	0xbd19fce8	-0.037594706
229	0x3d3a0b1e	0.04542076
230	0xbd41a5dc	-0.047277316
231	0xbc2cc240	-0.01054436
232	0xbd09f212	-0.033678122
233	0xbd2060cc	-0.039154813
234	0x3d3fd4c4	0.04683377
235	0x3d6c7d44	0.05773665
236	0x3d5763c4	0.05258538
237	0x3b92b690	0.0044773296
238	0x3d3588c8	0.044319898
239	0x3d568224	0.052370206
240	0x3cb2f0d8	0.021843359
241	0x3cfa1fe0	0.030532777
242	0x3cc8b688	0.0245011
243	0x3d06ed38	0.032941073
244	0x3d26323e	0.04057526
245	0x3cb73914	0.022366084
246	0xbd0de784	-0.03464462
247	0xbd5113fe	-0.051044457
248	0x3bfb6950	0.0076724663
249	0xbd07627c	-0.033052906
250	0xbd4188ee	-0.047249727
251	0xbd3f4450	-0.046696007
252	0x3cc757d8	0.02433388
253	0x3d1fa1b4	0.03897257
254	0xbcc1ff60	-0.023681343
255	0x3d30c250	0.04315406

bias f4 [18]
0	0xbd28c998	-0.04120788
1	0xb940a800	-0.00018373132
2	0x3ba67740	0.0050801337
3	0xbc16a1b8	-0.00919383
4	0xbba7f9b0	-0.0051262006
5	0x3d09b222	0.033617146
6	0xbca79800	-0.020458221
7	0xbc0e34b8	-0.008679561
8	0x3d69d5c0	0.057088614
9	0xbcaf8600	-0.0214262
10	0xbc8dfa5c	-0.017331295
11	0xbc570578	-0.013123862
12	0xbcaffd0c	-0.021482967
13	0xbd04dc8e	-0.0324369
14	0x3c8f6e60	0.017508686
15	0xbd7999e6	-0.060937785
16	0x3d5eb38a	0.05437044
17	0xbcd10898	-0.025516793

weight f4 [18]
0	0x3f800000	1.0
1	0x3f800000	1.0
2	0x3f800000	1.0
3	0x3f800000	1.0
4	0x3f800000	1.0
5	0x3f800000	1.0
6	0x3f800000	1.0
7	0x3f800000	1.0
8	0x3f800000	1.0
9	0x3f800000	1.0
10	0x3f800000	1.0
11	0x3f800000	1.0
12	0x3f800000	1.0
13	0x3f800000	1.0
14	0x3f800000	1.0
15	0x3f800000	1.0
16	0x3f800000	1.0
17	0x3f800000	1.0

bias f4 [18]
0	0x00000000	0.0
1	0x00000000	0.0
2	0x00000000	0.0
3	0x00000000	0.0
4	0x00000000	0.0
5	0x00000000	0.0
6	0x00000000	0.0
7	0x00000000	0.0
8	0x00000000	0.0
9	0x00000000	0.0
10	0x00000000	0.0
11	0x00000000	0.0
12	0x00000000	0.0
13	0x00000000	0.0
14	0x00000000	0.0
15	0x00000000	0.0
16	0x00000000	0.0
17	0x00000000	0.0

weight f4 [18]
0	0x3f800000	1.0
1	0x3f800000	1.0
2	0x3f800000	1.0
3	0x3f800000	1.0
4	0x3f800000	1.0
5	0x3f800000	1.0
6	0x3f800000	1.0
7	0x3f800000	1.0
8	0x3f800000	1.0
9	0x3f800000	1.0
10	0x3f800000	1.0
11	0x3f800000	1.0
12	0x3f800000	1.0
13	0x3f800000	1.0
14	0x3f800000	1.0
15	0x3f800000	1.0
16	0x3f800000	1.0
17	0x3f800000	1.0

bias f4 [18]
0	0x00000000	0.0
1	0x00000000	0.0
2	0x00000000	0.0
3	0x00000000	0.0
4	0x00000000	0.0
5	0x00000000	0.0
6	0x00000000	0.0
7	0x00000000	0.0
8	0x00000000	0.0
9	0x00000000	0.0
10	0x00000000	0.0
11	0x00000000	0.0
12	0x00000000	0.0
13	0x00000000	0.0
14	0x00000000	0.0
15	0x00000000	0.0
16	0x00000000	0.0
17	0x00000000	0.0
