bearing_predictor_v.pth (torch, 354672 bytes, 89 tensors)

weight f4 [18, 18]
-0.074129745 -0.14287089 -0.018070526 -0.13827081 -0.1656736 0.12863457 -0.16278547 0.20478436
0.122798406 -0.16767883 -0.10313953 -0.19538228 -0.008485975 0.14650579 -0.099188186 -0.060278237
0.18008606 -0.19900131 0.16472106 0.052833833 -0.06139299 0.15660405 0.17875654 -0.051232696
0.12848325 0.10834073 0.11852387 0.14195749 0.11056 0.12573634 -0.055605926 0.008494522
0.1077848 0.011104579 -0.033071138 0.095726825 -0.10647753 -0.062400598 -0.16309634 0.19243395
-0.091750346 0.011970087 0.0621497 0.02745748 -0.1721915 0.15770373 0.06990839 0.2118555
-0.14572194 0.18871777 -0.33695784 0.076430954 -0.118268654 -0.18442188 -0.15325658 0.17191681
-0.05722868 0.054443028 -0.030286299 -0.16101573 -0.20843759 -0.1649387 0.07030444 0.13943307
-0.14927098 0.111832544 -0.16587383 0.16424006 -0.22754255 -0.0355167 0.2155172 -0.112614125
0.2209797 -0.17603442 0.23205255 0.23360145 0.03706861 0.03255514 -0.025003357 -0.09022043
0.21004906 -0.0003505386 0.20932165 0.14924477 0.01666191 0.1533935 -0.053158697 0.1673013
-0.014881556 0.080783464 -0.16733211 0.21173134 0.10201689 -0.04541578 0.00967039 -0.020120174
-0.04105209 0.02386489 0.07793037 -0.21639098 0.14240928 0.058475986 -0.16251874 0.022872213
-0.055856235 0.17145532 -0.052577455 0.04413573 0.16752666 -0.09510881 0.15899944 -0.17015871
-0.046541378 -0.07006165 -0.043781746 -0.04244989 -0.081695445 0.059480015 -0.079114005 0.053419583
-0.16914342 0.01030785 0.18637663 0.13151273 0.025540194 -0.004120553 -0.12747645 0.06095127
-0.13697664 0.22165829 0.14898685 0.027591635 0.04912351 -0.17523602 0.07925625 -0.19591013
0.07222189 -0.14548749 0.06387005 0.11451546 -0.12848455 0.17956808 0.08675514 -0.1647205
0.039456178 -0.22193962 0.15093142 0.18437463 0.04416522 -0.20974985 -0.026276851 0.106342815
-0.16081727 0.17466816 0.07329311 -0.12938851 -0.20831713 0.106273256 0.119965985 -0.09383216
-0.004080225 -0.15460335 0.03860467 0.088958785 0.08786778 -0.1908788 0.0036314542 -0.023427306
0.18729885 -0.15049906 0.19628032 -0.10544482 0.041492973 -0.13476388 -0.09424338 -0.12987325
0.14134113 0.1870101 -0.19650826 -0.03158627 0.12423963 -0.13169327 -0.11706879 -0.022997681
0.15353537 -0.033987023 0.13364562 0.032328434 0.13933057 0.019157993 -0.047853813 0.19450882
-0.18218909 -0.012297397 0.23969664 -0.19262356 0.11114933 0.021691764 -0.055783898 -0.15089934
-0.16652158 0.11865592 -0.17508823 -0.17881417 -0.011517847 0.013543737 0.1342328 -0.1253424
0.15578222 -0.068736754 0.03395831 -0.024836956 0.11142321 0.14052005 0.14388455 -0.21361278
0.0042497483 -0.22016792 -0.13777724 -0.19913743 0.056636866 0.15094724 0.113260835 0.18392053
-0.16640665 0.22234765 0.103576384 0.19436376 -0.17671002 0.051011715 0.081592984 -0.23074313
-0.22348687 0.084221706 0.070885986 0.20094383 -0.099095285 0.09201913 0.21085472 0.15671395
-0.13243912 -0.0703394 0.14684264 -0.08581828 0.033000033 0.013823909 -0.10908508 0.055650875
-0.086312234 -0.043045305 0.17293476 0.016144466 0.18065213 -0.0023744912 -0.1592135 0.10752323
00000000: 56d1 97bd bf4c 12be a408 94bc dd96 0dbe
00000010: 57a6 29be c8b8 033e 3cb1 26be feb2 513e
00000020: bb7d fb3d 00b4 2bbe d13a d3bd 4b12 48be
00000030: c208 0bbc 9d05 163e 2d23 cbbd 50e6 76bd
00000040: 7b68 383e 00c7 4bbe a3ac 283e 4a68 583d
00000050: 3777 7bbd d05c 203e f40b 373e 60d9 51bd
00000060: 1d91 033e bfe1 dd3d a5bc f23d 4e5d 113e
00000070: 486d e23d 07c1 003e 0ac3 63bd 9c2c 0b3c
00000080: 47be dc3d fbef 353c 9a75 07bd 6d0c c43d
00000090: e410 dabd c597 7fbd ba02 27be 680d 453e
000000a0: 9be7 bbbd 2f1e 443c af90 7e3d 82ee e03c
000000b0: f852 30be 167d 213e 212c 8f3d a6f0 583e
000000c0: 2238 15be 3b3f 413e bd85 acbe d587 9c3d
000000d0: d636 f2bd 17d9 3cbe 4bef 1cbe f60a 303e
000000e0: 9f68 6abd a7ff 5e3d f91a f8bc 4fe1 24be
000000f0: aa70 55be b1e5 28be c6fb 8f3d 8bc7 0e3e
00000100: 7eda 18be 7608 e53d d4da 29be 8c2e 283e
00000110: ea00 69be f679 11bd 8ab0 5c3e 3ca2 e6bd
00000120: 8148 623e 5e42 34be 2f9f 6d3e 3835 6f3e
00000130: 41d5 173d 8a58 053d d7d3 ccbc 7dc5 b8bd
00000140: 1a17 573e 7fc8 b7b9 6a58 563e 9fd3 183e
00000150: 8f7e 883c 3013 1d3e efbc 59bd 0851 2b3e
00000160: c5d1 73bc cd71 a53d 1c59 2bbe 1ad0 583e
00000170: 3bee d03d e605 3abd 8e70 1e3c 10d3 a4bc
00000180: 3c26 28bd 4d80 c33c f599 9f3d 9995 5dbe
00000190: bdd3 113e 8484 6f3d 506b 26be 825e bb3c
000001a0: 82c9 64bd fc91 2f3e 755b 57bd abc7 343d
000001b0: 1c8c 2b3e 68c8 c2bd c0d0 223e 163e 2ebe
000001c0: 2ca2 3ebd 7b7c 8fbd 7d54 33bd f0df 2dbd
000001d0: f14f a7bd 51a1 733d 8606 a2bd 7ece 5a3d
000001e0: ef33 2dbe 42e2 283c 84d9 3e3e 46ab 063e
000001f0: ab39 d13c b405 87bb 3089 02be 0aa8 793d
00000200: 9b43 0cbe 64fa 623e 0290 183e da07 e23c
00000210: bc35 493d 1271 33be 1a51 a23d aa9c 48be
00000220: 12e9 933d acfa 14be 4dce 823d 1587 ea3d
00000230: 7491 03be b2e0 373e aeac b13d 7eac 28be
00000240: cd9c 213d 2444 63be c48d 1a3e b4cc 3c3e
00000250: 97e6 343d aac8 56be 8d42 d7bc 43ca d93d
00000260: 48ad 24be 36dc 323e b31a 963d 6c7e 04be
00000270: 1651 55be cba5 d93d bab0 f53d 132b c0bd
00000280: 68b3 85bb 5750 1ebe ee1f 1e3d 0630 b63d
00000290: 06f4 b33d bb75 43be b1fd 6d3b 9fea bfbc
000002a0: 45cb 3f3e 6d1c 1abe b5fd 483e 74f3 d7bd
000002b0: 89f4 293d 8bff 09be ac02 c1bd 7efd 04be
000002c0: bbbb 103e 937f 3f3e 7639 49be 9b60 01bd
000002d0: 5971 fe3d 9ada 06be c3c1 efbd a265 bcbc
000002e0: 6038 1d3e fa35 0bbd 66da 083e d26a 043d
000002f0: acac 0e3e 39f1 9c3c 5c02 44bd 522d 473e
00000300: c78f 3abe 057b 49bc 0973 753e 1c3f 45be
00000310: 43a2 e33d edb2 b13c a87d 64bd 5b85 1abe
00000320: a284 2abe e001 f33d 544a 33be 101b 37be
00000330: 5ab5 3cbc 8de6 5d3c 5374 093e c259 00be
00000340: 6085 1f3e dbc5 8cbd de17 0b3d df76 cbbc
00000350: da31 e43d 7de4 0f3e 7956 133e 4fbd 5abe
00000360: 7941 8b3b b373 61be 7a15 0dbe afea 4bbe
00000370: 0ffc 673d ea91 1a3e 4cf5 e73d aa55 3c3e
00000380: 8166 2abe 1aaf 633e db1f d43d 4b07 473e
00000390: 79f3 34be a9f1 503d 391a a73d ed47 6cbe
000003a0: bed9 64be 6e7c ac3d ac2c 913d 38c4 4d3e
000003b0: 78f2 cabd 8774 bc3d 4dea 573e 9f79 203e
000003c0: 1f9e 07be 1a0e 90bd eb5d 163e 7fc1 afbd
000003d0: 0b2b 073d ad7d 623c 0068 dfbd 2cf2 633d
000003e0: 78c4 b0bd 4650 30bd cf15 313e 6641 843c
000003f0: dffc 383e 5a9d 1bbb dd08 23be 2435 dc3d

bias f4 [18]
0.17700073 0.20359203 -0.086582 -0.086663514 -0.12616313 0.20449111 -0.1746122 0.21737318
0.04162312 0.1461594 0.06746885 0.16359538 0.22296703 -0.09740309 0.09636197 -0.0681303
-0.18427256 -0.22422013
00000000: ae3f 353e 6e7a 503e e751 b1bd a47c b1bd
00000010: e830 01be 1e66 513e 8acd 32be 1397 5e3e
00000020: 017d 2a3d cfaa 153e 1c2d 8a3d 8c85 273e
00000030: 7851 643e 457b c7bd 6d59 c53d e687 8bbd
00000040: f2b1 3cbe f699 65be

in_proj_weight f4 [54, 18]
-0.00649786 0.10416278 0.25224167 0.20799443 -0.088865474 0.1368716 0.06148094 -0.1361117
-0.033605188 0.0451003 0.2516597 0.26675195 -0.27411407 -0.14296539 -0.06464285 0.14442793
0.24781138 -0.19790074 0.1790216 -0.267937 0.030751377 -0.19175752 0.2536962 0.21413219
0.18756986 -0.22657531 0.1169436 -0.20723167 -0.1998229 0.07425368 0.032564044 -0.03830126
0.1379658 -0.22718094 0.2138707 -0.088029 0.11588636 0.2151553 0.10865927 -0.012074679
0.110387474 0.04102248 -0.0830504 0.18725401 -0.10841566 -0.21267948 0.010757208 -0.28281614
-0.1347573 -0.08085498 0.19333076 -0.18891013 0.24823499 0.09979236 0.085653275 0.07009879
0.15544823 -0.23067787 0.12636122 -0.18053728 -0.17310518 0.06217611 -0.17622453 0.07014778
-0.28625378 0.20218074 -0.18400319 0.18932179 -0.2237513 0.10679388 -0.021823496 -0.20161656
-0.23779233 -0.22416049 0.078679174 -0.0844934 -0.18370572 -0.28019112 -0.053551897 0.096830696
0.08463651 -0.0052336156 0.055885434 -0.06293012 0.09422651 -0.03123495 0.18733221 0.01280725
-0.16597603 -0.20921579 0.10858691 0.12672564 -0.11942981 -0.12877843 0.2826057 0.25055152
0.052730054 -0.11579855 0.20462582 -0.1317349 -0.09485856 -0.22348006 -0.12028545 -0.04934439
-0.088615775 0.25776005 0.08011785 -0.2258403 -0.10077219 0.03801003 0.049927652 0.021648169
0.25498265 -0.14776528 0.2730773 -0.24366052 -0.120470226 -0.06895952 -0.2757063 0.21154892
-0.2540673 -0.08578502 -0.05165142 -0.253235 -0.2424272 0.19951329 -0.013168037 0.021767765
0.0072700083 -0.23810571 -0.2685591 0.13003418 0.2188859 0.21058378 0.1795761 -0.02568239
0.082803726 -0.023760915 0.24227762 -0.054694086 0.11768457 -0.15892142 -0.15704066 0.12023246
0.0006431341 -0.102143526 0.13473591 -0.17565578 0.23545891 0.26296538 0.11112258 0.007262975
0.16800642 0.06784454 -0.0595264 0.1986767 -0.08177325 -0.057431966 0.019462615 -0.255595
-0.10210678 -0.14614822 0.23401701 0.19703177 -0.20331556 0.11631739 -0.08768949 -0.17583239
-0.0016000867 -0.16229762 -0.16058266 0.18780258 0.17859805 -0.04487011 0.21083432 0.085422516
-0.2462774 -0.16397583 -0.19041112 0.014645189 0.21719754 0.25568277 0.05503404 0.00639078
0.2697847 -0.06810215 0.04241082 -0.0004634261 0.09161037 0.25416493 -0.08556178 0.13561523
0.17355809 0.07125059 0.14413899 -0.13850246 0.2841112 0.039890796 0.10211548 -0.18933854
0.20451388 -0.22206226 0.20761806 0.08944908 -0.26412728 0.028518498 -0.01341778 0.11495891
-0.14126544 -0.055348232 0.21990252 0.16807637 0.072266996 0.102436155 0.23675066 -0.08433008
-0.13825639 0.2788248 0.1599977 -0.054063305 0.028099835 -0.13967808 0.09968045 0.11953896
-0.23020235 0.09767389 0.28814292 -0.22178397 0.0917874 -0.16153917 -0.11566593 -0.13072404
-0.24760088 -0.112812415 -0.088686764 0.23792946 -0.022797346 0.1058144 -0.06820609 -0.10518472
-0.06700501 -0.27710235 -0.10409436 -0.15171938 0.15353969 -0.2610969 0.18307939 -0.015790313
-0.19318733 -0.029946357 -0.18668146 0.23047233 0.03307748 0.09930733 0.1115886 0.15872282
00000000: 00ec d4bb 4c53 d53d d225 813e 7efc 543e
00000010: 1aff b5bd 1228 0c3e 70d3 7b3d de60 0bbe
00000020: 98a5 09bd 18bb 383d 8ad9 803e b693 883e
00000030: ae58 8cbe 8565 12be 7863 84bd eae4 133e
00000040: 44c2 7d3e 7ea6 4abe 7051 373e 0a2f 89be
00000050: 50ea fb3c 155c 44be 78e4 813e 7845 5b3e
00000060: 5012 403e 5c03 68be 2080 ef3d 8a34 54be
00000070: 609e 4cbe 5012 983d e061 053d c8e1 1cbd
00000080: e846 0d3e 1fa2 68be ec00 5b3e 8c48 b4bd
00000090: d455 ed3d ac51 5c3e c088 de3d e0d4 45bc
000000a0: d412 e23d 3007 283d 5416 aabd 84bf 3f3e
000000b0: 0809 debd a6c8 59be 003f 303c 47cd 90be
000000c0: d1fd 09be 4c97 a5bd 80f8 453e a871 41be
000000d0: 5031 7e3e f05f cc3d fc6a af3d f48f 8f3d
000000e0: d22d 1f3e d236 6cbe d664 013e c4de 38be
000000f0: 7c42 31be 60ac 7e3d 3474 34be a4a9 8f3d
00000100: db8f 92be 7808 4f3e 556b 3cbe 92dd 413e
00000110: 101f 65be c0b6 da3d 30c7 b2bc 9274 4ebe
00000120: d57f 73be 548a 65be 8c22 a13d e00a adbd
00000130: 5a1d 3cbe 3675 8fbe 3c59 5bbd 2c4f c63d
00000140: e855 ad3d c07e abbb 20e8 643d 82e1 80bd
00000150: d4f9 c03d 70e0 ffbc 04d4 3f3e 80d5 513c
00000160: 9ff5 29be aa3c 56be d062 de3d 5ec4 013e
00000170: 9e97 f4bd 7ede 03be b2b1 903e 4a48 803e
00000180: 78fb 573d ca27 edbd 6e89 513e 83e5 06be
00000190: 3445 c2bd f5d7 64be 3858 f6bd 581d 4abd
000001a0: 307c b5bd 20f9 833e d414 a43d ae42 67be
000001b0: a661 cebd 68b0 1b3d f080 4c3d 8057 b13c
000001c0: 168d 823e c84f 17be cad0 8b3e 2582 79be
000001d0: 18b9 f6bd a63a 8dbd 6029 8dbe 48a0 583e
000001e0: 1c15 82be 0eb0 afbd 7090 53bd 05a8 81be
000001f0: d63e 78be 364d 4c3e c0be 57bc 5052 b23c
00000200: 4039 ee3b fcd1 73be 9480 89be ae27 053e
00000210: a023 603e 46a3 573e cce2 373e e063 d2bc
00000220: 0095 a93d 40a6 c2bc a017 783e e806 60bd
00000230: 9c04 f13d 4cbc 22be 44cf 20be 703c f63d
00000240: 0098 283a a030 d1bd 36f8 093e 1cdf 33be
00000250: 241c 713e 66a3 863e 3c94 e33d 40fe ed3b
00000260: e009 2c3e 14f2 8a3d f4d1 73bd e871 4b3e
00000270: bc78 a7bd c83d 6bbd 1070 9f3c 59dd 82be
00000280: 5c1d d1bd e1a7 15be 28a2 6f3e b2c2 493e
00000290: f431 50be d037 ee3d 8c96 b3bd 680d 34be
000002a0: 00ba d1ba 5931 26be c86f 24be 524f 403e
000002b0: 68e2 363e b8c9 37bd f4e4 573e 00f2 ae3d
000002c0: 2530 7cbe 48e9 27be 22fb 42be 60f2 6f3c
000002d0: 0869 5e3e dae8 823e 606b 613d c069 d13b
000002e0: 3821 8a3e 2479 8bbd f8b6 2d3d 00f8 f2b9
000002f0: 389e bb3d e821 823e 043b afbd b8de 0a3e
00000300: 36b9 313e d4eb 913d 2c99 133e 97d3 0dbe
00000310: 0677 913e 8864 233d ec21 d13d f6e1 41be
00000320: 166c 513e 4a64 63be d499 543e 1431 b73d
00000330: b13b 87be a09f e93c 40d6 5bbc 946f eb3d
00000340: e3a7 10be d4b4 62bd 202e 613e 361c 2c3e
00000350: b800 943d 0cca d13d c46e 723e 40b5 acbd
00000360: 1593 0dbe 20c2 8e3e 70d6 233e 7c71 5dbd
00000370: a031 e63c c507 0fbe 4425 cc3d d8d0 f43d
00000380: 2aba 6bbe 4009 c83d 7887 933e 561b 63be
00000390: 08fb bb3d 866a 25be 42e2 ecbd 86dc 05be
000003a0: 168b 7dbe 320a e7bd 68a1 b5bd c8a3 733e
000003b0: 80c1 babc 38b5 d83d a2af 8bbd 166b d7bd
000003c0: ec39 89bd 5ce0 8dbe 6c2f d5bd 535c 1bbe
000003d0: 8239 1d3e 7eae 85be 2a79 3b3e b05a 81bc
000003e0: e6d2 45be 1052 f5bc 6d29 3fbe f000 6c3e
000003f0: 407c 073d a461 cb3d 9088 e43d 3c88 223e

in_proj_bias f4 [54]
0.0 0.0 0.0 0.0 0.0 0.0 0.0 0.0
0.0 0.0 0.0 0.0 0.0 0.0 0.0 0.0
0.0 0.0 0.0 0.0 0.0 0.0 0.0 0.0
0.0 0.0 0.0 0.0 0.0 0.0 0.0 0.0
0.0 0.0 0.0 0.0 0.0 0.0 0.0 0.0
0.0 0.0 0.0 0.0 0.0 0.0 0.0 0.0
0.0 0.0 0.0 0.0 0.0 0.0
00000000: 0000 0000 0000 0000 0000 0000 0000 0000
00000010: 0000 0000 0000 0000 0000 0000 0000 0000
00000020: 0000 0000 0000 0000 0000 0000 0000 0000
00000030: 0000 0000 0000 0000 0000 0000 0000 0000
00000040: 0000 0000 0000 0000 0000 0000 0000 0000
00000050: 0000 0000 0000 0000 0000 0000 0000 0000
00000060: 0000 0000 0000 0000 0000 0000 0000 0000
00000070: 0000 0000 0000 0000 0000 0000 0000 0000
00000080: 0000 0000 0000 0000 0000 0000 0000 0000
00000090: 0000 0000 0000 0000 0000 0000 0000 0000
000000a0: 0000 0000 0000 0000 0000 0000 0000 0000
000000b0: 0000 0000 0000 0000 0000 0000 0000 0000
000000c0: 0000 0000 0000 0000 0000 0000 0000 0000
000000d0: 0000 0000 0000 0000

weight f4 [18, 18]
-0.12060731 0.21991454 0.21858422 -0.08708461 0.22660078 -0.114876546 0.0041795373 -0.13208926
-0.009656578 0.06496586 0.025244042 0.1961308 -0.21422274 0.13904499 -0.16007665 0.200958
-0.14253053 -0.22405647 -0.19095054 -0.18168709 0.10616772 0.1778333 -0.030396953 -0.13002378
-0.01887241 -0.11288036 0.06427477 0.10689314 -0.18996683 0.11367531 0.17477502 -0.036395267
0.11301376 -0.1803954 -0.07216872 0.004372701 -0.06304166 -0.20777944 -0.20112611 -0.13019472
-0.22902687 -0.12674105 -0.20339066 0.16391446 0.22505076 -0.0073441714 -0.069246545 -0.12222606
-0.08733751 -0.06266497 -0.062911615 -0.053412005 -0.01658301 0.02596657 -0.16312113 0.19921328
-0.1792972 0.21621574 0.16089506 0.08193503 -0.0607315 -0.20046887 0.008941039 0.09949587
0.082088575 -0.13551727 0.18519507 -0.10964207 0.18576668 0.062682286 -0.05556427 0.02646248
-0.16049121 0.108349815 0.19515271 -0.1824267 0.12385951 0.05604084 0.036767796 -0.22710538
0.19297917 -0.063817635 0.20644568 0.051266685 -0.0018234104 0.023433909 0.021663353 -0.14193717
-0.10174589 0.12260498 -0.23137179 -0.2098856 -0.13532221 0.18530633 0.02563648 0.14222594
0.10886057 -0.070208356 0.00076822937 0.018124774 0.23048015 0.2290244 0.113632575 0.07101224
-0.17822775 -0.2051563 0.23363216 0.097409025 0.099780455 -0.09698096 0.1918693 0.10142012
0.19729699 0.017085329 -0.1597214 0.008975372 0.17966469 -0.069263145 -0.05496435 0.100575104
-0.11881593 -0.10956021 -0.20928212 0.07599227 0.040053114 -0.14762872 0.099804714 -0.16602987
0.020688578 -0.06612219 0.21603905 -0.054290116 -0.10128683 0.020455971 0.21216805 0.065174356
-0.22205015 -0.03488837 0.18440746 -0.090789706 -0.07394117 0.21692835 0.052014813 0.054300204
-0.037695214 -0.07595351 0.098336324 -0.09487407 -0.02387914 0.18169461 -0.10271117 -0.0021824539
0.16097443 0.2066224 0.14387141 0.039322034 0.21738373 -0.14582261 -0.14868343 0.17094724
0.15299086 -0.19281967 0.023982987 0.11434458 -0.14947808 -0.003981307 -0.1256819 -0.15368082
-0.0918227 0.13703711 0.1197349 -0.016286075 -0.023469359 0.06472789 0.22630934 0.021882132
0.012563616 0.18555228 0.1531396 0.10519539 0.011162877 0.15959387 -0.039435998 -0.2071861
0.025222197 0.071034655 -0.16896713 0.021458313 0.18313603 -0.16822395 0.04146181 0.017806903
-0.040584996 0.058245823 0.22006662 -0.022982538 0.13117127 -0.026326656 0.14029615 0.02153124
0.14685597 -0.02576384 -0.04091172 -0.14995627 0.009384215 0.20349832 0.1705638 0.19115831
0.010781497 -0.099632114 0.06824677 -0.17752595 -0.08020981 -0.054969102 -0.18081436 0.14577661
0.21170773 -0.07717189 -0.027578115 -0.14313994 0.17797129 0.070487395 0.037762687 0.22500594
-0.045698956 0.12640975 0.011338741 0.18618776 -0.017151386 0.10797258 0.18947686 -0.046375975
0.07347669 0.0356382 0.009097233 -0.08776404 0.09755252 -0.17405696 -0.0026418269 -0.05920185
-0.13825858 0.088575706 -0.10277298 -0.08661994 0.13785292 -0.18942572 -0.09459773 -0.087716445
0.0047938377 -0.12708047 -0.023153707 -0.14437358 0.13570924 0.10068162 -0.0047482103 0.0035286993
00000000: f700 f7bd 4731 613e 8bd4 5f3e 6a59 b2bd
00000010: 090a 683e 6544 ebbd 80f4 883b 6842 07be
00000020: a036 1ebc d20c 853d 98cc ce3c 83d6 483e
00000030: 355d 5bbe cf61 0e3e 22eb 23be efc7 4d3e
00000040: 86f3 11be 0f6f 65be 8a88 43be 2e0c 3abe
00000050: 766e d93d ef19 363e 0803 f9bc f424 05be
00000060: 509a 9abc d12d e7bd 7ea2 833d caea da3d
00000070: aa86 42be 9ace e83d 39f8 323e 3413 15bd
00000080: c273 e73d 92b9 38be 32cd 93bd e048 8f3b
00000090: fc1b 81bd 22c4 54be 01f4 4dbe c451 05be
000000a0: 0586 6abe 68c8 01be a445 50be 31d9 273e
000000b0: b573 663e 60a7 f0bb 22d1 8dbd a851 fabd
000000c0: 02de b2bd 7e56 80bd ced7 80bd 8cc6 5abd
000000d0: 18d9 87bc d8b7 d43c 3a09 27be 91fe 4b3e
000000e0: af99 37be a967 5d3e adc1 243e 8ecd a73d
000000f0: 98c1 78bd b647 4dbe 707d 123c 7ec4 cb3d
00000100: 0e1e a83d 0ac5 0abe c7a3 3d3e 068c e0bd
00000110: 9f39 3e3e 925f 803d 5c97 63bd d8c7 d83c
00000120: cf57 24be 82e6 dd3d 1dd6 473e 11ce 3abe
00000130: 0eaa fd3d 148b 653d d499 163d 508e 68be
00000140: 559c 453e d2b2 82bd 7f66 533e 04fd 513d
00000150: 80ff eeba 78f8 bf3c 5877 b13c fa57 11be
00000160: 2660 d0bd 5218 fb3d baec 6cbe 40ec 56be
00000170: e891 0abe f1c0 3d3e 9803 d23c ada3 113e
00000180: 4af2 de3d 66c9 8fbd 0063 493a 687a 943c
00000190: fd02 6c3e 5f85 6a3e 32b8 e83d de6e 913d
000001a0: 5681 36be 7e14 52be 453d 6f3e 627e c73d
000001b0: b259 cc3d f49d c6bd 6379 443e 5ab5 cf3d
000001c0: 3908 4a3e 88f6 8b3c 028e 23be 700d 133c
000001d0: 05fa 373e d6d9 8dbd 4c22 61bd 52fa cd3d
000001e0: c455 f3bd 1a61 e0bd 0d4e 56be d6a1 9b3d
000001f0: bc0e 243d fc2b 17be 6a66 cc3d bc03 2abe
00000200: 187b a93c 126b 87bd 5739 5d3e 505f 5ebd
00000210: 786f cfbd 4893 a73c 9542 593e 227a 853d
00000220: 1d61 63be 1ce7 0ebd 4fd5 3c3e f4ef b9bd
00000230: 786e 97bd 7722 5e3e 7c0d 553d e469 5e3d
00000240: 4c66 1abd 848d 9bbd 8e64 c93d 564d c2bd
00000250: 309e c3bc 270e 3a3e 3c5a d2bd 8007 0fbb
00000260: 7bd6 243e d394 533e 0753 133e 2410 213d
00000270: d799 5e3e 8652 15be 7840 18be cb0c 2f3e
00000280: a3a9 1c3e 8572 45be f877 c43c 7e2d ea3d
00000290: c810 19be a075 82bb c2b2 00be 815e 1dbe
000002a0: 8a0d bcbd 7553 0c3e 9237 f53d 606a 85bc
000002b0: d042 c0bc 0e90 843d a3bd 673e 2842 b33c
000002c0: a0d7 4d3c 6b01 3e3e a1d0 1c3e ae70 d73d
000002d0: 80e4 363c 936c 233e a487 21bd 9828 54be
000002e0: c89e ce3c 9e7a 913d b805 2dbe 58c9 af3c
000002f0: 0388 3b3e e642 2cbe dcd3 293d c8df 913c
00000300: 743c 26bd 2c93 6e3d 2559 613e e045 bcbc
00000310: c351 063e 00ab d7bc cba9 0f3e 4862 b03c
00000320: 6961 163e b00e d3bc 0c93 27bd 238e 19be
00000330: 40c0 193c dd61 503e 47a8 2e3e 01bf 433e
00000340: e0a4 303c ec0b ccbd f6c4 8b3d 5dc9 35be
00000350: 0a45 a4bd 4827 61bd 6627 39be 7746 153e
00000360: e9c9 583e 4c0c 9ebd 80eb e1bc 4793 12be
00000370: 1b3e 363e b25b 903d 0cad 1a3d f567 663e
00000380: d42e 3bbd 8f71 013e 20c6 393c 01a8 3e3e
00000390: 1081 8cbc ba20 dd3d 3906 423e bcf4 3dbd
000003a0: f27a 963d 5cf9 113d 900c 153c a2bd b3bd
000003b0: 9ec9 c73d fd3b 32be 8022 2dbb a47d 72bd
000003c0: a893 0dbe 2e67 b53d a47a d2bd cc65 b1bd
000003d0: 5129 0d3e d1f8 41be 74bc c1bd aea4 b3bd
000003e0: a015 9d3b 6221 02be d8ac bdbc abd6 13be
000003f0: 5df7 0a3e 2a32 ce3d e096 9bbb c041 673b

bias f4 [18]
0.0 0.0 0.0 0.0 0.0 0.0 0.0 0.0
0.0 0.0 0.0 0.0 0.0 0.0 0.0 0.0
0.0 0.0
00000000: 0000 0000 0000 0000 0000 0000 0000 0000
00000010: 0000 0000 0000 0000 0000 0000 0000 0000
00000020: 0000 0000 0000 0000 0000 0000 0000 0000
00000030: 0000 0000 0000 0000 0000 0000 0000 0000
00000040: 0000 0000 0000 0000

weight f4 [256, 18]
-0.14397858 -0.054230317 -0.14315572 0.1739612 0.18693732 -0.16888593 0.017519698 0.11461879
-0.16583203 0.02723147 0.056332394 -0.15037072 -0.20705755 -0.2032574 -0.008576244 0.18024506
-0.09652053 0.119260296 0.12525965 -0.13446936 0.16396053 -0.09829216 0.0716341 0.23194642
-0.17139569 0.08705242 -0.10380064 -0.09754124 -0.10620722 0.19954897 0.110624745 -0.018654987
-0.003015384 -0.103806674 -0.21238458 0.2297322 -0.028240323 -0.037843704 0.11026217 -0.2207333
-0.06895913 -0.14858669 -0.034084946 0.050206408 0.03585823 0.16168727 -0.16509317 -0.046645746
0.16571207 -0.07626882 -0.04101625 -0.029202685 0.22345243 0.23374112 0.06299533 0.0821179
-0.16048121 -0.17319761 0.10835247 0.22782977 -0.12844735 0.22549368 -0.21342143 -0.18901807
-0.04914798 0.16183124 -0.012065887 -0.18826643 -0.039305985 -0.0035214573 0.22162591 0.13769259
0.01181753 0.18097885 0.21995862 0.17928977 -0.13022193 0.22699566 -0.20826857 -0.0047269315
-0.1947884 0.17795826 -0.09924552 -0.11348646 0.08546485 -0.122577615 0.049083754 -0.07063854
-0.1908046 0.20045127 0.17048241 0.23218794 -0.014657095 0.18883304 0.13802083 -0.09624508
0.007284656 -0.16246793 -0.13795727 -0.21117488 -0.21296145 0.2201849 -0.13059253 -0.14176902
-0.12373683 -0.06377582 -0.095204905 0.057873562 -0.026212052 0.18462686 0.0047974586 -0.05817662
-0.1547614 -0.15742287 -0.029886529 0.114829555 -0.00575234 -0.13887836 -0.2170896 -0.11526891
0.13285093 0.012140483 0.098700896 0.20109846 0.12666361 -0.09203453 -0.044287577 0.13703804
0.18291308 0.22851677 -0.21699409 -0.2300953 -0.11589869 -0.18989572 -0.18895312 0.026547208
0.17909904 -0.08514997 0.22066863 0.20083936 -0.117445625 0.20999746 -0.19765119 -0.065519944
-0.1687442 0.17865913 -0.043397516 -0.13615587 -0.22493882 -0.006169617 0.18670715 -0.12151779
-0.19962959 0.1593049 -0.12904593 0.1294844 0.025610909 -0.077503845 -0.20675184 0.12889735
-0.19486053 0.032565787 0.21605776 0.09214948 0.008900344 -0.07192865 0.07743274 -0.15037976
0.19587366 -0.20985878 0.04922475 0.16289245 -0.046715796 -0.041138977 0.024325594 -0.006957099
0.060075 0.030596182 -0.16123693 -0.0075293332 0.21729024 -0.09613986 0.12552048 0.10912053
-0.05852981 -0.16415098 0.031638637 -0.11381987 -0.13492927 -0.096593335 0.15525688 0.18117921
0.19987385 0.20318116 0.038972005 -0.08148599 0.11196141 -0.21307713 0.050441667 0.04300107
-0.015393406 -0.22588502 0.23358704 0.112565175 0.0075307637 -0.17452154 0.02897279 -0.18663575
0.23273276 0.13180088 -0.17538172 0.23531355 0.1257761 0.060439184 0.21265636 0.20777087
0.16788755 0.19580345 0.21028094 0.10486765 0.097464606 -0.09080392 -0.14018789 0.0047916174
-0.023344487 0.06531994 -0.19138457 -0.014958486 0.016136304 0.22228046 -0.21352981 0.08449544
-0.1991773 -0.12456492 -0.184457 0.064747676 0.1404147 0.04709764 -0.048082113 -0.2134667
0.12361418 0.058426723 0.1994182 -0.00011149049 -0.07163076 -0.0639386 0.21905543 0.08552535
0.030108944 -0.00865218 -0.15548855 0.1466073 0.06958239 0.005377203 -0.16075248 0.19406967
00000000: 1f6f 13be 9c20 5ebd 6a97 12be e322 323e
00000010: 7f6c 3f3e 6ff0 2cbe 7885 8f3c 42bd ea3d
00000020: dfcf 29be 8814 df3c ccbc 663d c8fa 19be
00000030: e506 54be b522 50be 6083 0cbc 2992 383e
00000040: 8eac c5bd be3e f43d 1144 003e 56b2 09be
00000050: 45e5 273e 664d c9bd e6b4 923d 5d83 6d3e
00000060: 5a82 2fbe 8a48 b23d 6e95 d4bd b4c3 c7bd
00000070: 2c83 d9bd 9156 4c3e 3a8f e23d 58d2 98bc
00000080: c09d 45bb 9898 d4bd 587b 59be eb3e 6b3e
00000090: 4058 e7bc 0002 1bbd 22d1 e13d e907 62be
000000a0: 723a 8dbd 1c27 18be a89c 0bbd 3ca5 4d3d
000000b0: 14e0 123d 5991 253e 2f0e 29be 9c0f 3fbd
000000c0: 6db0 293e d432 9cbd a800 28bd 783a efbc
000000d0: b7d0 643e d559 6f3e b203 813d 6e2d a83d
000000e0: 3055 24be b75a 31be e6e7 dd3d 354c 693e
000000f0: b487 03be d1e7 663e 268b 5abe f48d 41be
00000100: 644f 49bd 17b7 253e 00b0 45bc eac8 40be
00000110: 50ff 20bd 40c8 66bb e7f1 623e 49ff 0c3e
00000120: 509e 413c 8552 393e d53c 613e bd97 373e
00000130: e658 05be 8d71 683e 5b44 55be 60e4 9abb
00000140: 9c76 47be b13a 363e 3c41 cbbd 976b e8bd
00000150: 3208 af3d f909 fbbd 0c0c 493d f0aa 90bd
00000160: 4862 43be 1943 4d3e f192 2e3e adc2 6d3e
00000170: 5024 70bc 735d 413e 5555 0d3e 241c c5bd
00000180: 20b4 ee3b fe5d 26be ac44 0dbe 3a3e 58be
00000190: 9112 5abe 2778 613e 0cba 05be e62b 11be
000001a0: bc69 fdbd e69c 82bd cafa c2bd d40c 6d3d
000001b0: a8ba d6bc d30e 3d3e 0034 9d3b 9c4a 6ebd
000001c0: c679 1ebe 7633 21be 98d4 f4bc c22b eb3d
000001d0: 207e bcbb 2136 0ebe bc4c 5ebe 1b12 ecbd
000001e0: 130a 083e e0e8 463c b223 ca3d c1ec 4d3e
000001f0: 1bb4 013e 9a7c bcbd e466 35bd b353 0c3e
00000200: 914d 3b3e 4d00 6a3e b333 5ebe 1a9e 6bbe
00000210: 4b5c edbd 0674 42be ed7c 41be 8879 d93c
00000220: bd65 373e 1c63 aebd f5f6 613e d5a8 4d3e
00000230: 5587 f0bd 9309 573e 1365 4abe 522f 86bd
00000240: 48cb 2cbe 6bf2 363e 98c1 31bd 726c 0bbe
00000250: 5d56 66be 802a cabb 2930 3f3e 52de f8bd
00000260: b36b 4cbe d320 233e 9e24 04be 8f97 043e
00000270: f8cd d13c 56ba 9ebd c1b6 53be abfd 033e
00000280: 8589 47be b463 053d 3f3e 5d3e deb8 bc3d
00000290: c0d2 113c 544f 93bd 0e95 9e3d 27fd 19be
000002a0: 1b93 483e 38e5 56be e49f 493d 47cd 263e
000002b0: 1059 3fbd 5881 28bd 7846 c73c 60f8 e3bb
000002c0: 3411 763d d8a4 fa3c 4b1b 25be a0b8 f6bb
000002d0: 5581 5e3e fae4 c4bd 7188 003e 967a df3d
000002e0: f4bc 6fbd 3217 28be 8497 013d 641a e9bd
000002f0: e62a 0abe bad2 c5bd a9fb 1e3e 0b87 393e
00000300: bbab 4c3e b90e 503e 1ca1 1f3d 20e2 a6bd
00000310: 064c e53d e430 5abe ec9b 4e3d e421 303d
00000320: a034 7cbc 674e 67be 7131 6f3e 9288 e63d
00000330: a0c4 f63b c6b5 32be 5858 ed3c 711d 3fbe
00000340: 7f51 6e3e cff6 063e 4497 33be 09f6 703e
00000350: 73cb 003e 148f 773d 97c2 593e e3c1 543e
00000360: b7ea 2b3e b380 483e e353 573e dac4 d63d
00000370: 869b c73d 68f7 b9bd 6a8d 0fbe 0003 9d3b
00000380: f03c bfbc 76c6 853d 51fa 43be 7014 75bc
00000390: 4830 843c 7d9d 633e 8fa7 5abe f20b ad3d
000003a0: 22f5 4bbe e51b ffbd 4ce2 3cbe 6e9a 843d
000003b0: dfc8 0f3e 74e9 403d c0f1 44bd 0497 5abe
000003c0: 6e29 fd3d dc50 6f3d 4934 4c3e 00d0 e9b8
000003d0: 26b3 92bd 3ef2 82bd 1150 603e ea27 af3d
000003e0: 08a7 f63c e0c1 0dbc 6438 1fbe 3920 163e
000003f0: 3681 8e3d 4033 b03b 4c9c 24be 33ba 463e

bias f4 [256]
-0.07043837 0.053474203 0.20632102 -0.08453792 -0.18957569 0.12004508 -0.035381183 0.20288523
0.0803871 -0.14789358 -0.22394764 -0.16020812 -0.046665773 -0.21688926 -0.022787392 -0.07106301
-0.090953946 -0.16067196 -0.17748429 -0.15171166 -0.19559838 0.18858437 0.076186344 -0.07702649
0.16179426 0.0628653 0.03740777 0.089753225 -0.121561825 0.2175668 -0.1027108 0.022038236
-0.19549961 0.09423791 0.113998726 0.1859584 0.20468931 0.03779064 -0.23388371 0.16761477
-0.0896364 0.23225506 0.02751024 0.15395217 -0.15212183 -0.09503229 0.0017662346 -0.08629686
-0.028659835 -0.21419813 0.21589477 0.050366983 0.030074224 -0.21123138 0.044411466 0.10867803
-0.21025136 0.13066833 0.09219606 0.17928691 0.082489744 0.01947631 -0.10572635 0.12935562
0.11095615 -0.060257047 0.16166459 0.1568556 0.11095284 0.06887163 0.122391835 -0.08788063
0.23153587 0.07632436 0.16115297 0.15151782 -0.15690713 0.0832362 -0.004557222 0.20512928
-0.096476436 0.10621227 0.0671161 0.12677525 -0.014611214 0.22650488 0.09544937 -0.17620009
-0.10930538 0.051006034 0.06907968 -0.09847313 -0.048686698 0.21290226 -0.14441924 -0.17220688
0.10105561 0.07798903 0.01542975 -0.06479575 0.029026046 -0.119469285 -0.0716064 -0.17694095
0.2260179 -0.23363526 0.08507599 -0.062961966 -0.08944331 -0.1799996 -0.100681454 -0.16756539
0.20376532 -0.064662084 0.08939092 0.1944416 0.17022373 -0.047652602 0.19113718 0.2213056
0.049130276 -0.0110862255 0.10835774 -0.20759009 -0.15104207 0.10588162 -0.18459982 0.15166281
0.18894456 0.05715637 -0.088632524 -0.20162702 0.1262105 -0.020245776 0.086560234 -0.016107827
0.2048044 -0.09363082 -0.07731187 -0.024372771 0.22011454 -0.116242185 -0.08735962 0.11771728
-0.05736725 -0.117012575 -0.02796933 0.11608334 0.036227122 0.1846311 0.048145667 0.023407564
0.14498441 0.22884573 -0.044815585 -0.14135933 -0.050810754 0.023753777 -0.050427914 -0.119423404
-0.12970608 0.054903254 -0.04847902 0.20921575 -0.08051105 0.027623102 0.106213406 -0.034444034
-0.10677719 0.08595289 -0.20566814 0.10500835 0.13336281 0.021876678 0.1984934 -0.18428096
0.15528257 0.14491384 0.035673246 0.1221136 0.015668437 0.12452383 0.14729266 0.23052885
-0.14022408 0.030188724 -0.13937162 -0.100754574 -0.03684236 -0.13463333 0.13038845 0.008375198
-0.0812653 -0.05441937 -0.21865858 0.055825427 0.23223652 0.10961108 -0.2090881 0.1823783
-0.014002845 0.22430457 -0.20532483 0.13157772 -0.031778127 -0.11629366 -0.06618427 -0.20992103
0.15800579 -0.0753797 -0.060155466 0.018299505 0.081857815 0.084645376 -0.2353303 -0.12738633
-0.20679653 0.19430806 -0.11049406 -0.14567834 0.12765287 0.0048247725 0.15347965 0.057024255
0.05299972 0.041240588 -0.22231929 0.1220472 0.12015851 -0.08318569 -0.17955396 0.17936878
-0.14109084 -0.22874786 0.17031042 0.07497968 0.21592303 0.030302271 -0.15270978 0.022836223
-0.126001 0.09035702 -0.17241359 -0.2136951 -0.1942337 -0.08681464 0.022234187 0.026445195
0.1665845 -0.031728685 -0.19156104 0.068017945 -0.121153675 -0.1315169 -0.050355032 -0.13256702
00000000: fe41 90bd c407 5b3d d145 533e 3822 adbd
00000010: 2120 42be 32da f53d dceb 10bd 25c1 4f3e
00000020: fea1 a43d 6a71 17be 8852 65be 990d 24be
00000030: 9c24 3fbd 3818 5ebe a0ac babc 7c89 91bd
00000040: 1046 babd 3187 24be 71be 35be 4d5a 1bbe
00000050: f14a 48be 431c 413e 9607 9c3d 10c0 9dbd
00000060: 65ad 253e 86bf 803d e438 193d 8ad0 b73d
00000070: 68f5 f8bd d5c9 5e3e 0a5a d2bd 8889 b43c
00000080: 0d31 48be ceff c03d 2a78 e93d e16b 3e3e
00000090: 139a 513e 5cca 1a3d 367f 6fbe 35a3 2b3e
000000a0: 4a93 b7bd 45d4 6d3e 285d e13c a3a5 1d3e
000000b0: d3c5 1bbe 4aa0 c2bd 0081 e73a 68bc b0bd
000000c0: 08c8 eabc c156 5bbe 8513 5d3e 9c4d 4e3d
000000d0: 385e f63c 0a4d 58be cce8 353d 9692 de3d
000000e0: 224c 57be ebcd 053e 4ad1 bc3d fd96 373e
000000f0: 62f0 a83d c88c 9f3c 0e87 d8bd cd75 043e
00000100: fa3c e33d 18d0 76bd 678b 253e c19e 203e
00000110: 3e3b e33d 920c 8d3d 92a8 fa3d c2fa b3bd
00000120: bd17 6d3e f24f 9c3d 4905 253e 7d27 1b3e
00000130: 43ac 20be be77 aa3d c054 95bb 690d 523e
00000140: 7095 c5bd d285 d93d 2a74 893d 5fd1 013e
00000150: e063 6fbc e5f0 673e f67a c33d cc6d 34be
00000160: 80db dfbd b4eb 503d a679 8d3d 48ac c9bd
00000170: b46b 47bd 0d03 5a3e a3e2 13be 0057 30be
00000180: 3ef6 ce3d b6b8 9f3d 10cd 7c3c a2b3 84bd
00000190: 08c8 ed3c 50ac f4bd 60a6 92bd 0230 35be
000001a0: 3d71 673e 153e 6fbe 523c ae3d 34f2 80bd
000001b0: 0e2e b7bd d151 38be 1432 cebd 4396 2bbe
000001c0: dba7 503e 8e6d 84bd 9612 b73d b31b 473e
000001d0: 214f 2e3e 602f 43bd 77b9 433e ef9d 623e
000001e0: d43c 493d 00a3 35bc aaea dd3d 7f92 54be
000001f0: c6aa 1abe 76d8 d83d bc07 3dbe 7f4d 1b3e
00000200: af7a 413e cc1c 6a3d f884 b5bd 5077 4ebe
00000210: 533d 013e 78da a5bc 7e46 b13d 90f4 83bc
00000220: 3fb8 513e 84c1 bfbd b055 9ebd 68a9 c7bc
00000230: b565 613e 6210 eebd 9ae9 b2bd c215 f13d
00000240: ecf9 6abd 4aa4 efbd f01f e5bc 1abd ed3d
00000250: e462 143d ef0f 3d3e 6434 453d 38c1 bf3c
00000260: cb76 143e 8956 6a3e 8c90 37bd 80c0 10be
00000270: f01e 50bd 4897 c23c 808d 4ebd 4294 f4bd
00000280: acd1 04be 3ce2 603d f091 46bd a73c 563e
00000290: fae2 a4bd d849 e23c 6a86 d93d 3015 0dbd
000002a0: 00ae dabd 1208 b03d ab9a 52be 9e0e d73d
000002b0: 4390 083e b836 b33c db41 4b3e 26b4 3cbe
000002c0: 6502 1f3e 4b64 143e 1c1e 123d b216 fa3d
000002d0: 185b 803c 5a06 ff3d e3d3 163e c10f 6c3e
000002e0: e796 0fbe 584e f73c 6fb7 0ebe 6a58 cebd
000002f0: 04e8 16bd 52dd 09be 8d84 053e 2038 093c
00000300: 6c6e a6bd d8e6 5ebd 09e8 5fbe 34a9 643d
00000310: 69cf 6d3e c67b e03d 311b 56be 61c1 3a3e
00000320: 306c 65bc 19b0 653e ac40 52be 4fbc 063e
00000330: c829 02bd 5f2b eebd 9e8b 87bd 8af5 56be
00000340: 45cc 213e ac60 9abd 9465 76bd d8e8 953c
00000350: 12a5 a73d 8e5a ad3d 6dfa 70be 9071 02be
00000360: 78c2 53be b1f8 463e b64a e2bd b42c 15be
00000370: 6fb7 023e 2019 9e3b c529 1d3e 4492 693d
00000380: 3c16 593d e4eb 283d aba7 63be e2f3 f93d
00000390: aa15 f63d 425d aabd fedc 37be 73ac 373e
000003a0: 1e7a 10be e13c 6abe db65 2e3e f28e 993d
000003b0: ed1a 5d3e 783c f83c f45f 1cbe 0813 bb3c
000003c0: 6806 01be 1a0d b93d 308d 30be e3d2 5abe
000003d0: 33e5 46be e0cb b1bd 7824 b63c 98a3 d83c
000003e0: 2195 2a3e f0f5 01bd 9428 44be fe4c 8b3d
000003f0: 6b1f f8bd 5eac 06be 1441 4ebd a6bf 07be

weight f4 [18, 256]
0.033190362 0.030529208 -0.045911744 -0.04677157 0.05389011 -0.006924726 0.034833312 0.043453574
-0.016382754 0.057847105 0.030207537 0.042212956 0.031349123 0.04599064 0.020746686 0.039293833
-0.02945821 0.0024038479 0.011605158 0.009269506 -0.03388183 -0.04970134 -0.048908837 0.04774893
-0.028044678 -0.024905905 0.056409977 0.021455526 -0.0153552145 0.034229912 -0.0479645 -0.0025153905
-0.04119564 -0.031189926 -0.022548802 0.037696816 0.015751936 -0.05868166 -0.054523736 0.0061925724
0.039227106 0.045964897 0.0046118945 -0.016296223 -0.03972151 0.0047895163 -0.026727498 0.0019434318
-0.029583 -0.033652008 -0.004430957 0.03498228 -0.05834558 -0.0015193075 -0.006600648 0.05310723
-0.058569305 0.025288612 -0.011987172 -0.0468193 0.011950865 -0.042972438 0.0069837645 -0.00868427
-0.041080743 -0.04387962 -0.03002777 0.040608466 0.015071437 -0.019631423 -0.0002968982 0.044698477
-0.04568229 -0.037839964 0.0046978593 0.042688854 0.0144212395 0.05818922 -0.039091922 -0.027917385
-0.002377078 0.03520892 0.0280298 0.01575552 0.048504323 -0.04857234 0.022925459 0.0034487396
0.05303175 0.040332206 -0.012127571 -0.054473393 0.036120094 -0.04161343 0.008135058 -0.012376204
-0.012456715 -0.0070676804 0.04170268 0.010811634 0.047161475 -0.021919474 0.034366705 -0.053292193
-0.00567203 -0.037328467 0.04396963 -0.040039554 0.01942335 -0.01709149 -0.046135075 0.052802056
-0.039127037 -0.062464133 0.0057221204 -0.013745435 0.030807316 0.02974867 -0.008879349 -0.040027276
-0.006762646 -0.03235297 0.00066298246 -0.02766674 0.047635265 0.0051428005 -0.018459037 -0.020294793
-0.061859377 -0.0035888627 -0.010621093 0.044677176 -0.03610064 -0.055125788 0.05575546 -0.0058467314
0.028679103 0.011149906 0.02903255 -6.497651e-05 -0.026875168 -0.0013474897 0.018380411 -0.010081969
0.056820735 0.04641562 -0.044626422 0.022153594 -0.008149222 -0.038826615 -0.0009749532 0.045359276
0.05583909 0.040091813 0.03275224 0.010586984 -0.03471788 -0.012164995 0.055689484 0.050213292
0.05135899 0.055306353 0.040178098 -0.023217268 0.033650413 -0.062451497 -0.061646767 0.0607498
0.047127523 0.04153011 0.024793848 -0.049058527 -0.021471344 -0.007711962 0.01978486 -0.018701851
0.0384259 0.024698451 -0.036588326 0.037137426 -0.0077601 -0.022648916 0.037375495 0.062474824
-0.011844844 0.057226032 0.035806082 0.02006425 -4.9762428e-05 0.012165494 0.04996738 -0.019783415
0.009568468 0.02745127 -0.020396456 0.028635234 -0.05377371 0.01719021 0.036996022 0.02017185
-0.04899647 -0.010442853 0.04352931 0.0122914985 -0.0540955 -0.009743296 0.02650807 0.006058164
-0.03656289 0.045861237 -0.06143888 0.06136223 -0.022223406 -0.03949359 -0.0060825422 -0.055235416
-0.030177847 -0.003623493 -0.01627113 -0.05799114 0.014723159 0.053145528 -0.041012786 -0.032370947
0.034799896 -0.023524813 -0.010677971 0.0040147975 0.03567838 0.04047648 -0.022357114 0.061172813
-0.051159047 0.0006485805 0.03479038 -0.006042339 -0.04114493 0.013942495 0.048073404 -0.026912041
-0.051725946 0.06185413 0.05799426 0.030824468 -0.04958734 -0.0057265684 0.029906876 0.017985746
-0.044378944 0.05881647 -0.032397203 0.047358297 0.03816004 0.0110431835 0.06144757 0.061490625
00000000: 9ef2 073d 6418 fa3c f40d 3cbd 8c93 3fbd
00000010: e0bb 5c3d d0e8 e2bb 60ad 0e3d 60fc 313d
00000020: 2035 86bc 16f1 6c3d cc75 f73c 7ee7 2c3d
00000030: f067 003d ae60 3c3d f4f4 a93c 92f2 203d
00000040: 5852 f1bc e089 1d3b 9023 3e3c 20df 173c
00000050: acc7 0abd a293 4bbd a254 48bd 6294 433d
00000060: f4bd e5bc 7807 ccbc 260e 673d 80c3 af3c
00000070: 7094 7bbc aa34 0c3d 6c76 44bd 40d9 24bb
00000080: c2bc 28bd 0482 ffbc 44b8 b8bc fa67 1a3d
00000090: 340a 813c 2e5c 70bd 4854 5fbd 10eb ca3b
000000a0: 9aac 203d b045 3c3d 601f 973b a87f 85bc
000000b0: 06b3 22bd 60f1 9c3b a0f3 dabc c0ba fe3a
000000c0: 0c58 f2bc b0d6 09bd 9031 91bb 9449 0f3d
000000d0: c6fb 6ebd 8023 c7ba 404a d8bb f886 593d
000000e0: 5ee6 6fbd 102a cf3c d865 44bc 98c5 3fbd
000000f0: 90cd 433c de03 30bd 10d8 e43b 7848 0ebc
00000100: 4844 28bd 1ebb 33bd ccfc f5bc 1055 263d
00000110: 30ee 763c 14d2 a0bc 00a9 9bb9 c015 373d
00000120: 5a1d 3bbd 14fe 1abd 80f0 993b 82da 2e3d
00000130: 1047 6c3c d257 6e3d da1e 20bd 00b3 e4bc
00000140: c0c8 1bbb 3a37 103d c09e e53c b811 813c
00000150: 78ac 463d caf3 46bd 2cce bb3c 4004 623b
00000160: d237 593d 6233 253d b8b2 46bc 7e1f 5fbd
00000170: aaf2 133d d872 2abd e848 053c 90c5 4abc
00000180: 4017 4cbc 0098 e7bb 6ed0 2a3d 4823 313c
00000190: 642c 413d 7890 b3bc 1ac4 0c3d ea48 5abd
000001a0: 70dc b9bb bce5 18bd 8019 343d 8400 24bd
000001b0: b81d 9f3c 7403 8cbc 22f8 3cbd f846 583d
000001c0: ac43 20bd 64da 7fbd a080 bb3b 8834 61bc
000001d0: a05f fc3c 7cb3 f33c b07a 11bc a4f3 23bd
000001e0: 3099 ddbb 8c84 04bd 00cc 2d3a 5ca5 e2bc
000001f0: 321d 433d f084 a83b 6837 97bc 4441 a6bc
00000200: 4260 7dbd 2033 6bbb 1804 2ebc 6aff 363d
00000210: 44de 13bd 94cb 61bd d65f 643d f095 bfbb
00000220: 70f0 ea3c 18ae 363c acd5 ed3c 0044 88b8
00000230: 5029 dcbc 409e b0ba 8492 963c d82e 25bc
00000240: dcbc 683d 4e1e 3e3d 32ca 36bd 747b b53c
00000250: 5084 05bc a808 1fbd 0094 7fba a6ca 393d
00000260: 88b7 643d 5037 243d 3627 063d 0875 2d3c
00000270: 5634 0ebd b04f 47bc a81a 643d 74ac 4d3d
00000280: ce5d 523d ea88 623d ca91 243d 2432 bebc
00000290: 04d5 093d 24cd 7fbd 5281 7cbd c8d4 783d
000002a0: ca08 413d 7a1b 2a3d 781c cb3c 98f1 48bd
000002b0: ace4 afbc a0b4 fcbb dc13 a23c a034 99bc
000002c0: 7a64 1d3d 6854 ca3c a4dd 15bd 6a1d 183d
000002d0: 7048 febb 388a b9bc 0c17 193d 9ae5 7f3d
000002e0: e010 42bc d865 6a3d 66a9 123d c85d a43c
000002f0: 00b8 50b8 c851 473c 98aa 4c3d d410 a2bc
00000300: 10c5 1c3c 7ce1 e03c 7816 a7bc 7094 ea3c
00000310: d241 5cbd 7cd2 8c3c 2489 173d 703f a53c
00000320: 86b0 48bd 8018 2bbc ca4b 323d 4862 493c
00000330: 3e93 5dbd 58a2 1fbc 7427 d93c 9083 c63b
00000340: f8c2 15bd fed8 3b3d 56a7 7bbd f656 7b3d
00000350: dc0d b6bc 08c4 21bd 1050 c7bb 883e 62bd
00000360: 8837 f7bc 2078 6dbb 084b 85bc 1e88 6dbd
00000370: 6839 713c 20af 593d 06fd 27bd 6697 04bd
00000380: 568a 0e3d 1cb7 c0bc a8f2 2ebc 908e 833b
00000390: 7e23 123d aaca 253d 4426 b7bc 5890 7a3d
000003a0: 268c 51bd 8005 2a3a 5c80 0e3d d0fe c5bb
000003b0: 9687 28bd 106f 643c 9ee8 443d a476 dcbc
000003c0: 96de 53bd c25a 7d3d 648b 6d3d 9883 fc3c
000003d0: 181c 4bbd f0a5 bbbb 44ff f43c d856 933c
000003e0: b2c6 35bd 8ae9 703d eeb2 04bd c6fa 413d
000003f0: b44d 1c3d 78ee 343c 72b0 7b3d 98dd 7b3d

bias f4 [18]
0.020539157 -0.04600498 -0.055720814 0.00534901 0.029341154 0.036343925 0.048022933 0.054918706
0.023510568 -0.024370901 -0.04393539 -0.04334338 0.051056333 0.0066601336 0.049515784 -0.006550893
0.02008538 -0.039627388
00000000: bc41 a83c b86f 3cbd 823b 64bd c046 af3b
00000010: dc5c f03c 5edd 143d b2b3 443d 70f2 603d
00000020: 3c99 c03c 7ca5 c7bc 98f5 33bd d488 31bd
00000030: 7220 513d 403d da3b 10d1 4a3d e0a8 d6bb
00000040: 188a a43c 5450 22bd

weight f4 [18]
1.0 1.0 1.0 1.0 1.0 1.0 1.0 1.0
1.0 1.0 1.0 1.0 1.0 1.0 1.0 1.0
1.0 1.0
00000000: 0000 803f 0000 803f 0000 803f 0000 803f
00000010: 0000 803f 0000 803f 0000 803f 0000 803f
00000020: 0000 803f 0000 803f 0000 803f 0000 803f
00000030: 0000 803f 0000 803f 0000 803f 0000 803f
00000040: 0000 803f 0000 803f

bias f4 [18]
0.0 0.0 0.0 0.0 0.0 0.0 0.0 0.0
0.0 0.0 0.0 0.0 0.0 0.0 0.0 0.0
0.0 0.0
00000000: 0000 0000 0000 0000 0000 0000 0000 0000
00000010: 0000 0000 0000 0000 0000 0000 0000 0000
00000020: 0000 0000 0000 0000 0000 0000 0000 0000
00000030: 0000 0000 0000 0000 0000 0000 0000 0000
00000040: 0000 0000 0000 0000

weight f4 [18]
1.0 1.0 1.0 1.0 1.0 1.0 1.0 1.0
1.0 1.0 1.0 1.0 1.0 1.0 1.0 1.0
1.0 1.0
00000000: 0000 803f 0000 803f 0000 803f 0000 803f
00000010: 0000 803f 0000 803f 0000 803f 0000 803f
00000020: 0000 803f 0000 803f 0000 803f 0000 803f
00000030: 0000 803f 0000 803f 0000 803f 0000 803f
00000040: 0000 803f 0000 803f

bias f4 [18]
0.0 0.0 0.0 0.0 0.0 0.0 0.0 0.0
0.0 0.0 0.0 0.0 0.0 0.0 0.0 0.0
0.0 0.0
00000000: 0000 0000 0000 0000 0000 0000 0000 0000
00000010: 0000 0000 0000 0000 0000 0000 0000 0000
00000020: 0000 0000 0000 0000 0000 0000 0000 0000
00000030: 0000 0000 0000 0000 0000 0000 0000 0000
00000040: 0000 0000 0000 0000

in_proj_weight f4 [54, 18]
-0.011077858 0.10793414 0.25491968 0.2018345 -0.0837285 0.13098532 0.06592042 -0.13978058
-0.03809491 0.049446486 0.24522169 0.26011 -0.26732588 -0.14677474 -0.06862553 0.1389375
0.24153987 -0.19192596 0.17265227 -0.26118112 0.03550984 -0.19567573 0.2569781 0.2077435
0.1914118 -0.23007724 0.110970356 -0.20063646 -0.20368302 0.06848386 0.03768094 -0.04331178
0.1320489 -0.23059751 0.20728627 -0.082286954 0.109254874 0.21893401 0.1135745 -0.017918656
0.1152761 0.036794238 -0.077617384 0.18035263 -0.11306207 -0.20538686 0.0047903345 -0.28672138
-0.12793952 -0.08616002 0.1863383 -0.19311813 0.2407056 0.10492365 0.077620946 0.07604677
0.16156131 -0.23659095 0.13265954 -0.18356763 -0.16592588 0.05460898 -0.18148302 0.077005014
-0.29166287 0.19339526 -0.17531635 0.18067047 -0.22940697 0.09908263 -0.029074024 -0.19282722
-0.22394305 -0.2328219 0.06633692 -0.07173342 -0.1940329 -0.27368245 -0.06137997 0.10762698
0.09352187 -0.017156864 0.067317165 -0.050627418 0.08188396 -0.019360045 0.1979048 0.023839474
-0.1527728 -0.21979256 0.09986079 0.1331759 -0.110788114 -0.13588291 0.28849086 0.24321964
0.059606127 -0.12283235 0.19586979 -0.12292986 -0.10211618 -0.2298808 -0.11149096 -0.05691332
-0.095830284 0.24824527 0.07161552 -0.21632929 -0.10910956 0.04565726 0.058267396 0.012497951
0.26198947 -0.15188584 0.27882907 -0.25082737 -0.12735505 -0.059663292 -0.282567 0.20111428
-0.243301 -0.09402815 -0.060027163 -0.2601116 -0.24966952 0.20708977 -0.0102286115 0.018749924
0.004519966 -0.23346902 -0.2694753 0.13266127 0.2146662 0.21190745 0.18157744 -0.028431078
0.085293196 -0.020496631 0.2374353 -0.05123676 0.11951006 -0.15512896 -0.15315755 0.11657428
-0.0061246683 -0.09505065 0.14041059 -0.18128446 0.24049859 0.2549314 0.11740941 0.000514837
0.16019483 0.07413453 -0.065930486 0.19050282 -0.07431199 -0.06388854 0.012706493 -0.2604652
-0.10816638 -0.13836375 0.24083647 0.18803804 -0.21000862 0.12389506 -0.09531862 -0.16965395
-0.009120182 -0.15275441 -0.1522434 0.17823017 0.18547542 -0.036180876 0.20091876 0.09312117
-0.23637043 -0.15463719 -0.18080309 0.0061777257 0.22548419 0.24540876 0.0455304 0.016010381
0.25849414 -0.063200854 0.033814654 0.0094081145 0.098646194 0.24290396 -0.07586856 0.14438967
0.16247398 0.08028839 0.15253547 -0.12810725 0.2916497 0.029962454 0.09319731 -0.18025394
0.21110174 -0.22872034 0.21432126 0.08262528 -0.2539444 0.020019284 -0.020884035 0.1222966
-0.14831744 -0.06316882 0.22668639 0.15873891 0.06368278 0.093545124 0.22697206 -0.075547904
-0.14511496 0.28413993 0.16648926 -0.061484087 0.035579197 -0.1441194 0.10627829 0.11093859
-0.235677 0.10472265 0.2785159 -0.2280401 0.09899757 -0.16816396 -0.1225182 -0.13747081
-0.25363454 -0.10426093 -0.09874549 0.24546514 -0.012678562 0.09457984 -0.057490733 -0.108813316
-0.057947353 -0.28588045 -0.11154137 -0.1403283 0.14261179 -0.2698233 0.19248681 -0.025974715
-0.2020973 -0.039948363 -0.19572984 0.23938227 0.037754677 0.09452542 0.10598327 0.162656
00000000: e77f 35bc 930c dd3d d584 823e b4ad 4e3e
00000010: d979 abbd 0421 063e 4901 873d a422 0fbe
00000020: 6909 1cbd 6688 4a3d 651b 7b3e 232d 853e
00000030: f0de 88be 1e4c 16be 8b8b 8cbd a245 0e3e
00000040: 3a56 773e 3d88 44be c2cb 303e 88b9 85be
00000050: c472 113d 385f 48be a292 833e b6ba 543e
00000060: 7401 443e 5e99 6bbe 6d44 e33d a573 4dbe
00000070: 4892 50be 4441 8c3d 5457 1a3d b167 31bd
00000080: d437 073e c121 6cbe da42 543e 1086 a8bd
00000090: 05c1 df3d 3d30 603e bf99 e83d 25ca 92bc
000000a0: e015 ec3d 8eb5 163d ddf5 9ebd 5cae 383e
000000b0: 168d e7bd ef50 52be 3df8 9c3b 25cd 92be
000000c0: 9402 03be aa74 b0bd 78cf 3e3e c2c0 45be
000000d0: 877b 763e 36e2 d63d bbf7 9e3d 69be 9b3d
000000e0: 5470 253e e644 72be e7d7 073e 27f9 3bbe
000000f0: 79e8 29be aaad 5f3d afd6 39be ceb4 9d3d
00000100: d654 95be 6809 463e 2186 33be ae01 393e
00000110: a9e9 6abe d5eb ca3d a62c eebc 8074 45be
00000120: 5451 65be dd68 6ebe a7db 873d f9e8 92bd
00000130: 8fb0 46be 1b20 8cbe 9069 7bbd 896b dc3d
00000140: 6588 bf3d 8d8c 8cbc 95dd 893d b25e 4fbd
00000150: c7b2 a73d f598 9ebc 8ea7 4a3e 004b c33c
00000160: 7970 1cbe 4d11 61be d083 cc3d 435f 083e
00000170: e1e4 e2bd e424 0bbe 13b5 933e 920e 793e
00000180: 8e25 743d 878f fbbd 1792 483e a7c2 fbbd
00000190: 4a22 d1bd df65 6bbe 5f55 e4bd f11d 69bd
000001a0: ab42 c4bd 0234 7e3e 28ab 923d 6d85 5dbe
000001b0: d574 dfbd 1b03 3b3d cba9 6e3d 35c4 4c3c
000001c0: 7c23 863e f687 1bbe afc2 8e3e 726c 80be
000001d0: 5d69 02be 7f61 74bd 9fac 90be e7f0 4d3e
000001e0: e623 79be d591 c0bd 0bdf 75bd 592d 85be
000001f0: 5ea9 7fbe 570f 543e e895 27bc 7199 993c
00000200: 391c 943b 8112 6fbe abf8 89be 5bd8 073e
00000210: 75d1 5b3e 44fe 583e 70ef 393e 4be8 e8bc
00000220: 33ae ae3d 8de8 a7bc 3d22 733e a3dd 51bd
00000230: b1c1 f43d 20da 1ebe 55d5 1cbe 7fbe ee3d
00000240: 71b1 c8bb eaa9 c2bd cbc7 0f3e a2a2 39be
00000250: 4345 763e 5e86 823e 5874 f03d 20f6 063a
00000260: 1d0a 243e d8d3 973d 9006 87bd 2c13 433e
00000270: e230 98bd ffd7 82bd e52e 503c b25b 85be
00000280: 5686 ddbd 3aaf 0dbe d69d 763e 0b8d 403e
00000290: 800c 57be b1bc fd3d 6936 c3bd c4b9 2dbe
000002a0: d16c 15bc a76b 1cbe b2e5 1bbe f881 363e
000002b0: 45ed 3d3e 6632 14bd a6bd 4d3e 50b6 be3d
000002c0: 170b 72be 3659 1ebe 7224 39be 856e ca3b
000002d0: 54e5 663e 6f4c 7b3e 167e 3a3d 3428 833c
000002e0: 5859 843e 736f 81bd 3c81 0a3d 7e24 1a3c
000002f0: 0407 ca3d d1bb 783e fa60 9bbd e3da 133e
00000300: 945f 263e 3d6e a43d 4232 1c3e 8c2e 03be
00000310: 1c53 953e d273 f53c 3bde be3d 7d94 38be
00000320: 0e2b 583e aa35 6abe 0877 5b3e 7137 a93d
00000330: 0005 82be 7bff a33c ff14 abbc a476 fa3d
00000340: 87e0 17be a85e 81bd 7a20 683e 748c 223e
00000350: 1e6c 823d 9694 bf3d 5d6b 683e dcb8 9abd
00000360: 0499 14be ca7a 913e 297c 2a3e bdd6 7bbd
00000370: 7ebb 113d 0994 13be 6fa8 d93d c533 e33d
00000380: 5055 71be d478 d63d a399 8e3e 5883 69be
00000390: 3dbf ca3d 2c33 2cbe d2ea fabd 26c5 0cbe
000003a0: 63dc 81be c186 d5bd 133b cabd 375b 7b3e
000003b0: beb9 4fbc 13b3 c13d 677b 6bbd 84d9 debd
000003c0: 345a 6dbd ec5e 92be cd6f e4bd 39b2 0fbe
000003d0: d308 123e 4826 8abe 431b 453e edc8 d4bc
000003e0: 98f2 4ebe e5a0 23bd 676d 48be a020 753e
000003f0: a6a4 1a3d 8b96 c13d c20d d93d 4b8f 263e

in_proj_bias f4 [54]
-0.0046699005 -0.005178664 -0.0058609955 -0.007444804 0.012163585 -0.007969254 -0.008993967 0.0029267918
-0.00678139 0.008375982 0.009667851 -0.008179039 -0.007782612 -0.010533211 0.0049655978 -0.007569889
-0.0069504487 0.009631286 -8.049618e-06 -8.013762e-07 -1.6267747e-06 2.793202e-07 9.4661186e-07 -3.887498e-07
4.837992e-06 1.6792725e-06 2.1387204e-06 -6.902753e-07 2.7763764e-07 -1.2894022e-06 -4.772529e-06 -3.815503e-06
-1.1234368e-06 5.494732e-08 -4.3658792e-06 4.699579e-06 0.01054003 0.007924843 0.009805518 0.005464892
0.0076362356 -0.006062322 0.009662558 0.007790248 0.004499952 0.010438603 -0.008277975 0.00878627
-0.013784891 0.0037735184 0.005418503 0.0073727192 -0.010549884 -0.009276763
00000000: f705 99bb c8b1 a9bb 980d c0bb 8bf3 f3bb
00000010: c649 473c 7991 02bc 6f5b 13bc 6bcf 3f3b
00000020: 6c36 debb 6a3b 093c e865 1e3c 6001 06bc
00000030: 4805 ffbb 7d93 2cbc 74b6 a23b d50c f8bb
00000040: 97c0 e3bb 8bcc 1d3c d90c 07b7 271e 57b5
00000050: 8e57 dab5 7af5 9534 ac1a 7e35 5eb5 d0b4
00000060: 0956 a236 5d63 e135 f086 0f36 5b4b 39b5
00000070: 3a0e 9534 860f adb5 b623 a0b6 ec06 80b6
00000080: ffc8 96b5 38ff 6b33 9e7e 92b6 14b1 9d36
00000090: 17b0 2c3c 33d7 013c 53a7 203c d612 b33b
000000a0: 6339 fa3b 71a6 c6bb b54f 1e3c 5645 ff3b
000000b0: 5574 933b ad06 2b3c 58a0 07bc 4af4 0f3c
000000c0: 06da 61bc 224d 773b b38d b13b da96 f13b
000000d0: 6cd9 2cbc 90fd 17bc
